mnist_nn/q_aware_model.tflite (tflite, 4312 bytes, 2 tensors)

sequential/quant_dense/MatMul;sequential/quant_dense/LastValueQuant/FakeQuantWithMinMaxVars i1 [10, 196] scale=0.019086152 zero_point=0
0.038172305 -0.09543076 -0.114516914 0.09543076 -0.07634461 0.0 -0.57258457 0.3626369
0.26720613 0.038172305 0.13360307 -0.15268922 -0.09543076 -0.09543076 0.057258457 -0.4008092
-0.8016184 -0.8588768 0.24811998 -0.019086152 0.019086152 -0.07634461 -0.19086152 -0.6489292
-0.6871015 -1.6223229 0.114516914 0.07634461 -0.038172305 -0.4008092 0.30537844 0.7061876
0.38172305 0.4008092 0.019086152 -0.07634461 -0.057258457 -0.26720613 -0.28629228 -1.0497384
0.057258457 0.0 -0.09543076 -0.41989535 -0.7061876 -0.629843 -0.4771538 -0.5534984
-0.3626369 -0.114516914 -0.057258457 -0.057258457 -0.09543076 0.057258457 0.09543076 -0.13360307
0.057258457 -0.9543076 -1.011566 -0.6107569 -0.4008092 -0.19086152 -0.038172305 0.07634461
-0.17177537 0.057258457 -0.038172305 -0.24811998 0.24811998 -0.17177537 -0.13360307 -0.8207046
-0.4389815 0.13360307 -0.038172305 -0.114516914 -0.5534984 -0.6871015 -0.20994768 -0.17177537
-0.15268922 -0.49623996 -0.057258457 -0.038172305 -0.4008092 -0.53441226 -0.15268922 -0.24811998
-0.057258457 0.30537844 0.38172305 0.17177537 -0.3626369 -0.09543076 -0.17177537 -1.0306523
-0.07634461 0.0 0.15268922 -1.0688245 1.0688245 0.7252738 0.57258457 0.6489292
0.6489292 0.4008092 0.6107569 0.038172305 -0.07634461 0.07634461 0.34355074 0.17177537
-0.114516914 0.24811998 0.7825322 0.49623996 0.19086152 0.30537844 0.15268922 0.53441226
0.57258457 0.19086152 0.4771538 0.28629228 0.51532614 -0.07634461 0.34355074 -0.019086152
0.3244646 0.53441226 0.13360307 -0.19086152 -0.19086152 0.41989535 0.3626369 0.5534984
0.4389815 0.45806766 0.3626369 0.038172305 0.3244646 0.019086152 -0.07634461 -0.30537844
-0.4008092 -0.3244646 -0.49623996 -0.629843 -0.3626369 -0.3626369 -0.28629228 0.13360307
0.19086152 -0.057258457 0.0 0.4008092 0.038172305 -0.8970492 -0.3244646 -0.22903383
-0.3244646 -0.49623996 -0.7061876 -0.8207046 -0.3244646 0.26720613 0.38172305 0.15268922
0.17177537 0.4771538 0.3244646 0.24811998 0.15268922 -0.038172305 -0.07634461 0.17177537
0.4008092 0.5534984 1.0306523 0.5534984 0.114516914 -0.038172305 0.09543076 0.0
-0.019086152 0.09543076 -0.019086152 0.0 -0.07634461 0.15268922 0.038172305 -0.17177537
-0.038172305 0.0 0.09543076 0.019086152 -0.07634461 0.17177537 0.09543076 -0.07634461
0.15268922 0.019086152 0.0 0.3244646 0.19086152 0.057258457 0.114516914 -0.07634461
0.0 0.07634461 0.07634461 0.34355074 0.6489292 1.259686 1.7940984 2.4239414
1.4123752 0.9733938 0.28629228 0.13360307 0.38172305 0.53441226 0.30537844 -0.057258457
-0.07634461 0.4389815 0.8207046 0.19086152 0.6107569 0.4389815 0.26720613 0.57258457
0.7252738 0.66801536 0.4389815 -0.30537844 -0.66801536 0.038172305 0.057258457 0.3626369
0.6107569 0.4389815 0.17177537 -0.15268922 -0.4389815 -0.19086152 -0.22903383 -0.07634461
0.019086152 -0.019086152 -0.13360307 0.0 0.19086152 0.7825322 1.3551168 0.28629228
00000000: 02fb fa05 fc00 e213 0e02 07f8 fbfb 03eb
00000010: d6d3 0dff 01fc f6de dcab 0604 feeb 1025
00000020: 1415 01fc fdf2 f1c9 0300 fbea dbdf e7e3
00000030: edfa fdfd fb03 05f9 03ce cbe0 ebf6 fe04
00000040: f703 fef3 0df7 f9d5 e907 fefa e3dc f5f7
00000050: f8e6 fdfe ebe4 f8f3 fd10 1409 edfb f7ca
00000060: fc00 08c8 3826 1e22 2215 2002 fc04 1209
00000070: fa0d 291a 0a10 081c 1e0a 190f 1bfc 12ff
00000080: 111c 07f6 f616 131d 1718 1302 1101 fcf0
00000090: ebef e6df eded f107 0afd 0015 02d1 eff4
000000a0: efe6 dbd5 ef0e 1408 0919 110d 08fe fc09
000000b0: 151d 361d 06fe 0500 ff05 ff00 fc08 02f7
000000c0: fe00 0501 fc09 05fc 0801 0011 0a03 06fc
000000d0: 0004 0412 2242 5e7f 4a33 0f07 141c 10fd
000000e0: fc17 2b0a 2017 0e1e 2623 17f0 dd02 0313
000000f0: 2017 09f8 e9f6 f4fc 01ff f900 0a29 470f

sequential/quant_dense_1/MatMul;sequential/quant_dense_1/LastValueQuant/FakeQuantWithMinMaxVars i1 [10, 10] scale=0.018245896 zero_point=0
-1.3866881 -0.31018025 0.9670325 -1.6786225 -0.054737687 -0.80281943 0.5108851 -0.8940489
0.5108851 0.8575571 -1.9523109 0.21895075 -1.1129997 1.2772127 -0.6203605 -0.9670325
0.5838687 -0.60211456 -0.27368844 -2.3172288 1.8610815 0.80281943 -0.9122948 -1.3684422
0.93054074 -0.65685225 0.072983585 0.34667203 0.054737687 -0.18245897 -0.018245896 -0.036491793
0.31018025 0.60211456 0.9122948 -1.058262 0.072983585 -0.60211456 -1.3501964 0.32842612
0.054737687 -1.404934 0.72983587 0.63860637 -1.6421306 1.404934 -1.8245896 -0.09122948
-1.3319504 -0.4743933 0.5473769 -0.5838687 -0.80281943 -0.036491793 1.222475 0.4561474
-0.80281943 -1.7698519 0.4561474 0.80281943 -0.83931124 0.36491793 0.4743933 -0.8210653
-1.2589668 1.0947537 0.8210653 -1.3866881 0.072983585 -0.9487866 -1.1677374 -0.6203605
-0.5838687 0.09122948 -0.78457355 -0.5473769 0.4561474 0.9122948 -1.6603765 1.2772127
-1.6786225 -0.41965562 -0.14596717 0.072983585 0.20070486 0.41965562 -0.80281943 0.3831638
0.80281943 -0.29193434 0.4561474 -2.3172288 0.78457355 0.5108851 -0.14596717 -0.60211456
0.4926392 0.60211456 -0.25544256 -0.34667203
00000000: b4ef 35a4 fdd4 1ccf 1c2f 950c c346 decb
00000010: 20df f181 662c ceb5 33dc 0413 03f6 fffe
00000020: 1121 32c6 04df b612 03b3 2823 a64d 9cfb
00000030: b7e6 1ee0 d4fe 4319 d49f 192c d214 1ad3
00000040: bb3c 2db4 04cc c0de e005 d5e2 1932 a546
00000050: a4e9 f804 0b17 d415 2cf0 1981 2b1c f8df
00000060: 1b21 f2ed
