mnist_nn/q_aware_model.tflite (tflite, 56024 bytes, 2 tensors)

sequential_3/quant_dense_6/MatMul;sequential_3/quant_dense_6/LastValueQuant/FakeQuantWithMinMaxVars i1 [256, 196] scale=0.014611308 zero_point=0
0.08766785 0.014611308 0.08766785 -0.10227916 0.043833926 0.029222617 0.014611308 -0.08766785
0.0 0.043833926 -0.058445234 0.014611308 -0.07305654 0.029222617 0.058445234 -0.014611308
-0.26300356 0.42372796 0.42372796 0.16072439 0.32144877 -0.014611308 0.32144877 0.6575089
0.26300356 -0.07305654 -0.058445234 -0.058445234 0.08766785 -0.10227916 0.10227916 0.49678448
0.39450532 0.30683747 0.14611308 -0.058445234 0.21916963 0.14611308 0.13150178 0.27761486
-0.014611308 0.029222617 -0.029222617 -0.11689047 0.16072439 0.42372796 -0.08766785 0.37989402
0.014611308 -0.21916963 -0.32144877 -0.10227916 0.23378094 -0.043833926 0.1753357 0.10227916
0.07305654 -0.014611308 0.32144877 -0.13150178 -0.07305654 0.08766785 -0.014611308 0.10227916
-0.1753357 -0.058445234 0.13150178 0.30683747 0.37989402 0.043833926 -0.058445234 -0.014611308
0.43833926 -0.3652827 -0.10227916 0.14611308 0.043833926 -0.20455831 -0.3360601 -0.043833926
-0.10227916 -0.13150178 0.0 -0.043833926 -0.043833926 -0.058445234 -0.07305654 -0.59906363
-0.5113958 -0.21916963 -0.13150178 -0.058445234 -0.26300356 0.058445234 0.10227916 -0.5260071
-0.39450532 0.10227916 0.07305654 0.11689047 -0.45295057 -0.46756187 -0.78901064 -0.80362195
-0.07305654 0.23378094 -0.014611308 0.11689047 0.11689047 -0.45295057 -0.14611308 0.043833926
-0.043833926 0.5260071 0.08766785 -0.029222617 -0.029222617 -0.29222617 0.14611308 0.32144877
-0.27761486 0.29222617 0.08766785 0.08766785 0.3652827 -0.014611308 0.014611308 0.43833926
0.13150178 0.3652827 0.3360601 0.07305654 -0.14611308 0.014611308 0.16072439 0.043833926
-0.043833926 -0.23378094 0.058445234 -0.029222617 -0.029222617 0.0 0.23378094 0.1753357
0.32144877 0.043833926 -0.043833926 0.24839224 0.20455831 0.29222617 0.39450532 0.07305654
-0.43833926 -0.08766785 0.08766785 0.26300356 -0.42372796 -0.42372796 -0.3360601 -0.42372796
-0.1753357 0.21916963 0.13150178 0.08766785 0.1753357 -0.32144877 0.18994701 0.07305654
0.08766785 -0.32144877 -0.5552297 0.058445234 0.30683747 0.29222617 0.46756187 0.20455831
0.13150178 0.10227916 0.3506714 -0.16072439 0.23378094 0.08766785 0.10227916 0.0
-0.10227916 -0.08766785 0.10227916 0.029222617 0.014611308 0.11689047 -0.029222617 0.029222617
0.10227916 -0.029222617 -0.10227916 -0.10227916 -0.07305654 -0.07305654 -0.10227916 0.07305654
0.014611308 0.08766785 0.08766785 0.07305654 0.11689047 0.043833926 -0.014611308 -0.07305654
0.014611308 0.0 0.043833926 -0.18994701 -0.10227916 0.16072439 0.13150178 -0.5552297
-1.2711838 -0.58445233 0.11689047 0.64289755 0.42372796 0.48217317 0.029222617 0.0
-0.029222617 0.029222617 -0.08766785 -0.5552297 0.014611308 -0.27761486 -0.3360601 -0.014611308
-0.058445234 0.23378094 0.14611308 0.3360601 0.61367494 -0.058445234 -0.08766785 0.014611308
0.32144877 -0.029222617 0.043833926 -0.18994701 0.0 0.16072439 0.1753357 0.08766785
-0.058445234 0.0 -0.43833926 -0.043833926 0.07305654 -0.08766785 0.014611308 0.014611308
00000000: 0601 06f9 0302 01fa 0003 fc01 fb02 04ff
00000010: ee1d 1d0b 16ff 162d 12fb fcfc 06f9 0722
00000020: 1b15 0afc 0f0a 0913 ff02 fef8 0b1d fa1a
00000030: 01f1 eaf9 10fd 0c07 05ff 16f7 fb06 ff07
00000040: f4fc 0915 1a03 fcff 1ee7 f90a 03f2 e9fd
00000050: f9f7 00fd fdfc fbd7 ddf1 f7fc ee04 07dc
00000060: e507 0508 e1e0 cac9 fb10 ff08 08e1 f603
00000070: fd24 06fe feec 0a16 ed14 0606 19ff 011e
00000080: 0919 1705 f601 0b03 fdf0 04fe fe00 100c
00000090: 1603 fd11 0e14 1b05 e2fa 0612 e3e3 e9e3
000000a0: f40f 0906 0cea 0d05 06ea da04 1514 200e
000000b0: 0907 18f5 1006 0700 f9fa 0702 0108 fe02
000000c0: 07fe f9f9 fbfb f905 0106 0605 0803 fffb
000000d0: 0100 03f3 f90b 09da a9d8 082c 1d21 0200
000000e0: fe02 fada 01ed e9ff fc10 0a17 2afc fa01
000000f0: 16fe 03f3 000b 0c06 fc00 e2fd 05fa 0101

sequential_3/quant_dense_7/MatMul;sequential_3/quant_dense_7/LastValueQuant/FakeQuantWithMinMaxVars i1 [10, 256] scale=0.019444099 zero_point=0
-0.69998753 -0.99164903 0.21388508 -1.0499814 -1.0694255 0.2722174 -1.4194192 0.25277328
-0.91387266 -0.42777017 0.46665835 0.21388508 0.0 -0.058332294 -1.4777515 -1.0305372
-0.038888197 -0.21388508 0.34999377 0.1361087 0.29166147 -0.2722174 -1.1277577 0.19444099
-0.1361087 0.097220495 -0.17499688 -0.64165527 -0.58332294 -0.058332294 0.1361087 0.3305497
0.42777017 -0.058332294 -0.23332918 -0.9333167 -0.1361087 0.0 0.15555279 0.15555279
0.019444099 -0.5249907 -0.7972081 -0.9722049 -0.077776395 0.11666459 0.077776395 -0.019444099
0.71943164 -0.36943787 0.29166147 0.25277328 -0.9333167 -0.64165527 0.15555279 -0.69998753
0.34999377 -1.1666459 0.19444099 -0.38888198 -0.91387266 0.11666459 0.23332918 -0.34999377
0.38888198 -0.62221116 -0.31110558 0.1361087 0.097220495 0.11666459 -0.69998753 -1.1277577
-0.62221116 -0.62221116 0.17499688 -0.097220495 0.15555279 -0.58332294 0.097220495 -0.5444348
0.15555279 0.3305497 -1.2055341 0.31110558 0.077776395 -0.6805435 0.11666459 -0.42777017
0.15555279 -0.11666459 -0.40832606 0.34999377 -0.38888198 0.29166147 -0.23332918 0.019444099
-0.31110558 -0.38888198 -0.40832606 -0.50554657 -0.73887575 0.62221116 0.38888198 0.25277328
-0.23332918 -0.058332294 0.019444099 -0.29166147 0.11666459 0.17499688 -0.019444099 0.31110558
-0.31110558 -0.42777017 0.25277328 -1.3221987 -0.038888197 -0.097220495 -0.99164903 0.34999377
-0.1361087 -0.36943787 -0.25277328 0.0 0.38888198 0.36943787 0.50554657 0.23332918
-0.46665835 0.44721428 -0.75831985 0.5249907 -1.2444223 -0.42777017 -0.99164903 0.2722174
0.3305497 0.31110558 -0.50554657 0.11666459 0.2722174 -0.29166147 0.31110558 -0.5249907
0.11666459 0.23332918 0.058332294 -0.058332294 -0.29166147 0.038888197 -0.19444099 -0.5444348
0.36943787 0.36943787 -0.23332918 -0.1361087 -0.8360962 0.21388508 -0.85554034 0.71943164
0.23332918 -0.64165527 -0.40832606 0.23332918 -1.0499814 0.23332918 0.097220495 0.15555279
-0.38888198 -0.019444099 -0.1361087 -1.1472018 0.21388508 -0.29166147 0.15555279 0.25277328
0.097220495 0.29166147 -0.50554657 0.019444099 0.19444099 -0.25277328 -0.5249907 0.38888198
0.46665835 0.1361087 0.29166147 0.44721428 -0.23332918 0.38888198 0.46665835 -1.4388633
0.23332918 0.40832606 -0.058332294 0.62221116 -0.15555279 0.23332918 -0.077776395 0.058332294
-0.15555279 0.0 -0.9722049 0.23332918 -0.19444099 -1.1083137 0.29166147 -0.097220495
-0.019444099 -0.097220495 0.40832606 -1.0110931 0.29166147 -0.5249907 -0.2722174 0.44721428
0.15555279 0.0 -0.31110558 -0.89442855 -0.6610994 -0.15555279 -0.9333167 0.019444099
-0.1361087 0.097220495 0.23332918 0.15555279 -0.019444099 -0.69998753 0.17499688 -1.1083137
-1.0305372 0.15555279 0.58332294 -0.7972081 -0.77776396 0.097220495 -1.3416429 0.31110558
-0.3305497 0.34999377 -0.44721428 -0.23332918 0.29166147 -0.19444099 -0.71943164 0.23332918
-0.29166147 -0.21388508 0.34999377 -1.18609 0.38888198 -0.46665835 -1.0305372 0.34999377
00000000: dccd 0bca c90e b70d d1ea 180b 00fd b4cb
00000010: fef5 1207 0ff2 c60a f905 f7df e2fd 0711
00000020: 16fd f4d0 f900 0808 01e5 d7ce fc06 04ff
00000030: 25ed 0f0d d0df 08dc 12c4 0aec d106 0cee
00000040: 14e0 f007 0506 dcc6 e0e0 09fb 08e2 05e4
00000050: 0811 c210 04dd 06ea 08fa eb12 ec0f f401
00000060: f0ec ebe6 da20 140d f4fd 01f1 0609 ff10
00000070: f0ea 0dbc fefb cd12 f9ed f300 1413 1a0c
00000080: e817 d91b c0ea cd0e 1110 e606 0ef1 10e5
00000090: 060c 03fd f102 f6e4 1313 f4f9 d50b d425
000000a0: 0cdf eb0c ca0c 0508 ecff f9c5 0bf1 080d
000000b0: 050f e601 0af3 e514 1807 0f17 f414 18b6
000000c0: 0c15 fd20 f80c fc03 f800 ce0c f6c7 0ffb
000000d0: fffb 15cc 0fe5 f217 0800 f0d2 def8 d001
000000e0: f905 0c08 ffdc 09c7 cb08 1ed7 d805 bb10
000000f0: ef12 e9f4 0ff6 db0c f1f5 12c3 14e8 cb12
