mnist_nn/q_aware_model.tflite (tflite, 4312 bytes, 2 tensors)

sequential/quant_dense/MatMul;sequential/quant_dense/LastValueQuant/FakeQuantWithMinMaxVars i1 [10, 196] scale=0.021452297 zero_point=0
-0.085809186 -0.042904593 -0.12871379 0.15016608 0.042904593 0.042904593 -0.085809186 0.34323674
0.15016608 0.10726148 -0.085809186 0.10726148 0.0 -0.06435689 0.021452297 0.51485515
0.42904592 -0.23597527 -0.9868056 -0.4934028 -0.06435689 0.042904593 0.25742757 0.10726148
-0.17161837 0.15016608 0.42904592 -0.042904593 0.0 0.8366396 0.32178444 0.38614133
0.0 0.06435689 -0.10726148 -0.042904593 0.021452297 0.23597527 -0.17161837 -0.042904593
0.30033216 -0.042904593 0.17161837 0.7293781 0.579212 0.5577597 0.32178444 0.21452296
0.17161837 -0.15016608 0.15016608 0.30033216 0.17161837 0.5363074 0.42904592 0.06435689
-0.021452297 0.21452296 0.36468905 0.40759364 0.40759364 0.06435689 0.12871379 0.06435689
0.45049822 0.5577597 0.6006643 0.6864735 1.5874699 -0.10726148 0.23597527 1.2871377
0.34323674 -0.17161837 -0.15016608 -0.06435689 0.51485515 0.5577597 0.36468905 0.34323674
0.21452296 0.47195053 1.8234452 -0.15016608 0.12871379 0.38614133 -0.21452296 0.06435689
0.23597527 0.36468905 0.45049822 -0.085809186 -0.10726148 -0.25742757 -0.5577597 -1.1155194
-0.32178444 0.0 0.6435689 0.6435689 0.15016608 0.021452297 0.0 0.0
-0.06435689 -0.40759364 -0.23597527 0.30033216 0.45049822 0.77228266 -0.19307067 0.15016608
0.51485515 0.12871379 0.12871379 -0.23597527 -0.34323674 -0.5363074 -0.6006643 -0.40759364
0.17161837 0.45049822 0.36468905 0.36468905 -0.6864735 0.06435689 -0.45049822 0.47195053
0.47195053 0.30033216 -0.042904593 -0.40759364 -0.42904592 -0.12871379 0.17161837 -0.042904593
-0.021452297 -0.30033216 -1.0940671 0.12871379 -0.75083035 0.17161837 0.06435689 0.085809186
0.0 -0.021452297 0.0 0.19307067 0.085809186 -0.23597527 -0.27887985 -0.6864735
-1.9736112 -0.085809186 -0.15016608 0.30033216 0.25742757 0.27887985 0.15016608 0.45049822
0.40759364 0.4934028 0.27887985 -0.51485515 -1.0511625 -1.0297103 -1.4587562 -0.10726148
-0.042904593 0.021452297 0.9868056 0.77228266 1.0940671 1.0511625 0.90099645 0.25742757
0.0 -0.042904593 -0.21452296 -0.042904593 0.17161837 -0.021452297 -0.06435689 -0.06435689
0.042904593 -0.17161837 -0.17161837 0.12871379 -0.10726148 0.15016608 -0.085809186 0.021452297
0.10726148 0.085809186 0.10726148 0.10726148 -0.085809186 0.021452297 -0.10726148 -0.12871379
0.0 -0.15016608 0.06435689 0.15016608 0.0 -0.15016608 -0.12871379 -0.10726148
0.17161837 0.12871379 -0.042904593 0.19307067 -0.5577597 -0.6864735 -0.36468905 -0.90099645
-0.6435689 -0.94390106 -1.4802085 -0.5577597 -0.36468905 0.21452296 0.51485515 0.12871379
0.06435689 -0.06435689 -0.92244875 -0.92244875 -0.51485515 -0.34323674 -0.15016608 -0.10726148
-0.19307067 -0.10726148 0.085809186 0.0 0.42904592 -0.17161837 0.17161837 -0.23597527
-0.085809186 0.0 0.19307067 0.12871379 0.15016608 -0.21452296 -0.085809186 0.17161837
0.23597527 0.4934028 0.5363074 0.085809186 0.21452296 0.042904593 0.45049822 0.6221166
00000000: fcfe fa07 0202 fc10 0705 fc05 00fd 0118
00000010: 14f5 d2e9 fd02 0c05 f807 14fe 0027 0f12
00000020: 0003 fbfe 010b f8fe 0efe 0822 1b1a 0f0a
00000030: 08f9 070e 0819 1403 ff0a 1113 1303 0603
00000040: 151a 1c20 4afb 0b3c 10f8 f9fd 181a 1110
00000050: 0a16 55f9 0612 f603 0b11 15fc fbf4 e6cc
00000060: f100 1e1e 0701 0000 fded f50e 1524 f707
00000070: 1806 06f5 f0e7 e4ed 0815 1111 e003 eb16
00000080: 160e feed ecfa 08fe fff2 cd06 dd08 0304
00000090: 00ff 0009 04f5 f3e0 a4fc f90e 0c0d 0715
000000a0: 1317 0de8 cfd0 bcfb fe01 2e24 3331 2a0c
000000b0: 00fe f6fe 08ff fdfd 02f8 f806 fb07 fc01
000000c0: 0504 0505 fc01 fbfa 00f9 0307 00f9 fafb
000000d0: 0806 fe09 e6e0 efd6 e2d4 bbe6 ef0a 1806
000000e0: 03fd d5d5 e8f0 f9fb f7fb 0400 14f8 08f5
000000f0: fc00 0906 07f6 fc08 0b17 1904 0a02 151d

sequential/quant_dense_1/MatMul;sequential/quant_dense_1/LastValueQuant/FakeQuantWithMinMaxVars i1 [10, 10] scale=0.02188795 zero_point=0
0.37209517 -1.1162854 -0.3502072 -0.7660783 -1.313277 1.2913891 -1.5540445 0.1313277
0.0875518 -1.2257252 -1.2476132 0.67852646 -0.10943975 0.6128626 -1.4227167 -1.3789409
0.5909747 1.1600614 -0.91929394 0.875518 -0.9411819 1.4227167 -0.56908673 0.7004144
-1.4227167 0.41587105 0.2626554 -1.4883807 0.1313277 0.74419034 1.0287337 -0.39398313
0.437759 1.1162854 -0.41587105 -0.63475055 -0.56908673 -1.0068457 -0.3502072 0.39398313
-0.6128626 -1.0725095 -1.4008288 -1.4227167 0.80985415 -0.45964697 0.7223024 0.15321565
0.67852646 -0.7223024 0.45964697 -0.4815349 -0.875518 1.2695011 0.2188795 0.41587105
-1.5540445 0.875518 -0.6128626 -1.2038373 -1.2257252 -1.0287337 -1.5102686 -0.897406
0.5909747 1.0506216 -0.4815349 0.875518 -0.9411819 0.8317421 0.67852646 -0.15321565
0.78796625 -0.875518 -0.4815349 -0.02188795 1.1381735 -1.6853722 -1.313277 0.3064313
-0.3502072 0.78796625 0.19699156 0.1313277 0.5471988 -0.2626554 -1.0287337 0.15321565
0.41587105 -0.5253108 -0.9630698 -2.7797697 1.5102686 -0.437759 0.50342286 -0.1751036
-0.02188795 0.4815349 0.10943975 -2.0793552
00000000: 11cd f0dd c43b b906 04c8 c71f fb1c bfc1
00000010: 1b35 d628 d541 e620 bf13 0cbc 0622 2fee
00000020: 1433 ede3 e6d2 f012 e4cf c0bf 25eb 2107
00000030: 1fdf 15ea d83a 0a13 b928 e4c9 c8d1 bbd7
00000040: 1b30 ea28 d526 1ff9 24d8 eaff 34b3 c40e
00000050: f024 0906 19f4 d107 13e8 d481 45ec 17f8
00000060: ff16 05a1
