mnist_nn/q_aware_model.tflite (tflite, 4312 bytes, 2 tensors)

sequential/quant_dense/MatMul;sequential/quant_dense/LastValueQuant/FakeQuantWithMinMaxVars i1 [10, 196] scale=0.026195513 zero_point=0
0	0x01	0.026195513
1	0x05	0.13097757
2	0xfe	-0.052391026
3	0x03	0.07858654
4	0x01	0.026195513
5	0x07	0.1833686
6	0xf7	-0.23575962
7	0x10	0.4191282
8	0x0e	0.3667372
9	0x06	0.15717308
10	0x03	0.07858654
11	0xfa	-0.15717308
12	0x02	0.052391026
13	0x01	0.026195513
14	0xff	-0.026195513
15	0x0d	0.34054166
16	0x0f	0.39293268
17	0x02	0.052391026
18	0x14	0.5239103
19	0x27	1.021625
20	0x16	0.5763013
21	0x00	0.0
22	0x0f	0.39293268
23	0xfe	-0.052391026
24	0x01	0.026195513
25	0xfc	-0.10478205
26	0x1f	0.8120609
27	0xfc	-0.10478205
28	0xfa	-0.15717308
29	0x1d	0.7596699
30	0x16	0.5763013
31	0x19	0.65488786
32	0x1a	0.6810833
33	0x1b	0.70727885
34	0x09	0.23575962
35	0x05	0.13097757
36	0x07	0.1833686
37	0x09	0.23575962
38	0xf6	-0.26195514
39	0xf3	-0.34054166
40	0xfb	-0.13097757
41	0x00	0.0
42	0xfe	-0.052391026
43	0xf3	-0.34054166
44	0x12	0.47151923
45	0x06	0.15717308
46	0x03	0.07858654
47	0x00	0.0
48	0x07	0.1833686
49	0x04	0.10478205
50	0x02	0.052391026
51	0x09	0.23575962
52	0xfe	-0.052391026
53	0x05	0.13097757
54	0x0a	0.26195514
55	0xfb	-0.13097757
56	0xfe	-0.052391026
57	0x0d	0.34054166
58	0x12	0.47151923
59	0xfd	-0.07858654
60	0xf9	-0.1833686
61	0xf5	-0.28815064
62	0xf1	-0.39293268
63	0x03	0.07858654
64	0x0b	0.28815064
65	0x04	0.10478205
66	0x04	0.10478205
67	0x08	0.2095641
68	0x1b	0.70727885
69	0xfc	-0.10478205
70	0xfc	-0.10478205
71	0x1c	0.7334744
72	0xea	-0.5763013
73	0xd7	-1.0740161
74	0xcf	-1.2835802
75	0xd7	-1.0740161
76	0xee	-0.47151923
77	0xfd	-0.07858654
78	0x01	0.026195513
79	0xfd	-0.07858654
80	0x08	0.2095641
81	0x11	0.44532374
82	0x2f	1.2311891
83	0x05	0.13097757
84	0x03	0.07858654
85	0xdf	-0.86445194
86	0xd8	-1.0478206
87	0xeb	-0.55010575
88	0x01	0.026195513
89	0x18	0.6286923
90	0x25	0.969234
91	0xf9	-0.1833686
92	0xe9	-0.6024968
93	0xf2	-0.3667372
94	0xf0	-0.4191282
95	0xd6	-1.1002115
96	0xe1	-0.8120609
97	0xfa	-0.15717308
98	0xec	-0.5239103
99	0x20	0.8382564
100	0x0a	0.26195514
101	0x1c	0.7334744
102	0x0e	0.3667372
103	0x1a	0.6810833
104	0x12	0.47151923
105	0xed	-0.49771476
106	0xf5	-0.28815064
107	0x0c	0.31434616
108	0x01	0.026195513
109	0x04	0.10478205
110	0xff	-0.026195513
111	0x01	0.026195513
112	0x01	0.026195513
113	0x0e	0.3667372
114	0x23	0.91684294
115	0x03	0.07858654
116	0xea	-0.5763013
117	0xed	-0.49771476
118	0xe2	-0.78586537
119	0xed	-0.49771476
120	0x13	0.49771476
121	0x18	0.6286923
122	0x10	0.4191282
123	0x0a	0.26195514
124	0x11	0.44532374
125	0x00	0.0
126	0xec	-0.5239103
127	0xfe	-0.052391026
128	0x1e	0.78586537
129	0x15	0.55010575
130	0x00	0.0
131	0xfe	-0.052391026
132	0xfc	-0.10478205
133	0x06	0.15717308
134	0x14	0.5239103
135	0x07	0.1833686
136	0x0c	0.31434616
137	0x01	0.026195513
138	0x09	0.23575962
139	0x01	0.026195513
140	0xeb	-0.55010575
141	0x27	1.021625
142	0x16	0.5763013
143	0x08	0.2095641
144	0x11	0.44532374
145	0x19	0.65488786
146	0x13	0.49771476
147	0x0d	0.34054166
148	0x04	0.10478205
149	0x01	0.026195513
150	0x08	0.2095641
151	0xf3	-0.34054166
152	0xf6	-0.26195514
153	0xfa	-0.15717308
154	0xf7	-0.23575962
155	0x28	1.0478206
156	0x18	0.6286923
157	0x08	0.2095641
158	0x07	0.1833686
159	0x0e	0.3667372
160	0x05	0.13097757
161	0x02	0.052391026
162	0xfa	-0.15717308
163	0xf6	-0.26195514
164	0xf1	-0.39293268
165	0x06	0.15717308
166	0xef	-0.44532374
167	0xfb	-0.13097757
168	0xfb	-0.13097757
169	0xf2	-0.3667372
170	0x0b	0.28815064
171	0xfb	-0.13097757
172	0xf6	-0.26195514
173	0xfb	-0.13097757
174	0xfd	-0.07858654
175	0xfa	-0.15717308
176	0xfc	-0.10478205
177	0xf4	-0.31434616
178	0xf2	-0.3667372
179	0x06	0.15717308
180	0x01	0.026195513
181	0xfe	-0.052391026
182	0xfa	-0.15717308
183	0x00	0.0
184	0xff	-0.026195513
185	0x04	0.10478205
186	0xfc	-0.10478205
187	0x01	0.026195513
188	0x00	0.0
189	0xfe	-0.052391026
190	0xfc	-0.10478205
191	0xfc	-0.10478205
192	0x01	0.026195513
193	0x01	0.026195513
194	0xfd	-0.07858654
195	0x06	0.15717308
196	0xff	-0.026195513
197	0xff	-0.026195513
198	0x03	0.07858654
199	0x01	0.026195513
200	0x06	0.15717308
201	0x01	0.026195513
202	0xeb	-0.55010575
203	0x01	0.026195513
204	0x05	0.13097757
205	0xfb	-0.13097757
206	0xfa	-0.15717308
207	0xff	-0.026195513
208	0xfd	-0.07858654
209	0x05	0.13097757
210	0xfe	-0.052391026
211	0xeb	-0.55010575
212	0xd5	-1.126407
213	0xcc	-1.3621666
214	0xb3	-2.0170546
215	0xbd	-1.7550994
216	0xd2	-1.2049936
217	0xf4	-0.31434616
218	0xf8	-0.2095641
219	0xe0	-0.8382564
220	0xf2	-0.3667372
221	0xec	-0.5239103
222	0x0e	0.3667372
223	0x05	0.13097757
224	0x01	0.026195513
225	0xd4	-1.1526026
226	0xcf	-1.2835802
227	0xe6	-0.6810833
228	0xe0	-0.8382564
229	0xe9	-0.6024968
230	0xed	-0.49771476
231	0x02	0.052391026
232	0x13	0.49771476
233	0x0a	0.26195514
234	0x0f	0.39293268
235	0x11	0.44532374
236	0x1e	0.78586537
237	0x00	0.0
238	0xff	-0.026195513
239	0x13	0.49771476
240	0x0c	0.31434616
241	0x0e	0.3667372
242	0x1c	0.7334744
243	0x06	0.15717308
244	0x05	0.13097757
245	0xfb	-0.13097757
246	0x04	0.10478205
247	0x0b	0.28815064
248	0x09	0.23575962
249	0x20	0.8382564
250	0x26	0.9954295
251	0xfa	-0.15717308
252	0x13	0.49771476
253	0x2a	1.1002115
254	0x1f	0.8120609
255	0x0e	0.3667372

sequential/quant_dense_1/MatMul;sequential/quant_dense_1/LastValueQuant/FakeQuantWithMinMaxVars i1 [10, 10] scale=0.019808497 zero_point=0
0	0x1c	0.5546379
1	0xdd	-0.6932974
2	0x29	0.8121484
3	0xca	-1.0696589
4	0xcd	-1.0102334
5	0xae	-1.6242968
6	0x23	0.6932974
7	0x1c	0.5546379
8	0xf3	-0.25751045
9	0x30	0.95080787
10	0xc2	-1.2281269
11	0xc3	-1.2083184
12	0xc5	-1.1687013
13	0x28	0.7923399
14	0xea	-0.43578693
15	0x1b	0.53482944
16	0x0d	0.25751045
17	0x6c	2.1393178
18	0x18	0.47540393
19	0xaa	-1.7035308
20	0x24	0.7131059
21	0x06	0.11885098
22	0xe8	-0.47540393
23	0x4d	1.5252542
24	0x1a	0.5150209
25	0xfd	-0.05942549
26	0xd9	-0.7725314
27	0xef	-0.33674446
28	0x88	-2.3770196
29	0x06	0.11885098
30	0x3c	1.1885098
31	0xfa	-0.11885098
32	0x25	0.7329144
33	0x0c	0.23770197
34	0x27	0.7725314
35	0x12	0.35655296
36	0xde	-0.6734889
37	0xea	-0.43578693
38	0xcf	-0.97061634
39	0xc0	-1.2677438
40	0xb6	-1.4658288
41	0x49	1.4460202
42	0xdf	-0.6536804
43	0xaf	-1.6044883
44	0xc8	-1.1092758
45	0x02	0.039616995
46	0xed	-0.37636146
47	0x9a	-2.0204668
48	0x2e	0.91119087
49	0x04	0.07923399
50	0x11	0.33674446
51	0x0e	0.27731895
52	0xd3	-0.8913824
53	0xe7	-0.49521244
54	0x0c	0.23770197
55	0xea	-0.43578693
56	0x32	0.9904249
57	0x3f	1.2479353
58	0xce	-0.9904249
59	0xee	-0.35655296
60	0xe6	-0.5150209
61	0xdd	-0.6932974
62	0xab	-1.6837223
63	0xcd	-1.0102334
64	0x94	-2.1393178
65	0x32	0.9904249
66	0x0f	0.29712746
67	0xfb	-0.09904249
68	0xfa	-0.11885098
69	0x32	0.9904249
70	0xfb	-0.09904249
71	0x1f	0.61406344
72	0xfc	-0.07923399
73	0x3b	1.1687013
74	0x48	1.4262118
75	0xa4	-1.8223817
76	0xaa	-1.7035308
77	0xf8	-0.15846798
78	0x13	0.37636146
79	0xfd	-0.05942549
80	0xc8	-1.1092758
81	0xf1	-0.29712746
82	0x01	0.019808497
83	0xe4	-0.5546379
84	0x12	0.35655296
85	0x25	0.7329144
86	0x41	1.2875524
87	0x9f	-1.9214243
88	0xb2	-1.5450628
89	0xfa	-0.11885098
90	0xb8	-1.4262118
91	0xe9	-0.45559543
92	0x38	1.1092758
93	0x81	-2.5156791
94	0x08	0.15846798
95	0xff	-0.019808497
96	0xf0	-0.31693596
97	0xb4	-1.5054458
98	0x27	0.7725314
99	0x0f	0.29712746
