mnist_nn/q_aware_model.tflite (tflite, 4312 bytes, 2 tensors)

sequential/quant_dense/MatMul;sequential/quant_dense/LastValueQuant/FakeQuantWithMinMaxVars i1 [10, 196] scale=0.02080173 zero_point=0
000000 fe 05 07 03 04 01 f7 04 06 01 02 f9 f8 fb fd fd
       -0.04160346 0.10400865 0.14561212 0.06240519 0.08320692 0.02080173 -0.18721557 0.08320692 0.12481038 0.02080173 0.04160346 -0.14561212 -0.16641384 -0.10400865 -0.06240519 -0.06240519
000010 29 e1 ba ab b5 e0 c2 d7 c3 ef f3 f8 05 26 44 0c
       0.85287094 -0.64485365 -1.4561211 -1.7681471 -1.5601298 -0.6656554 -1.2897073 -0.85287094 -1.2689055 -0.3536294 -0.2704225 -0.16641384 0.10400865 0.7904658 1.4145176 0.24962077
000020 0e 00 0d 04 fb 06 f6 f3 f4 07 04 11 29 0b 09 03
       0.29122424 0.0 0.2704225 0.08320692 -0.10400865 0.12481038 -0.2080173 -0.2704225 -0.24962077 0.14561212 0.08320692 0.3536294 0.85287094 0.22881904 0.18721557 0.06240519
000030 ff f6 fb f9 f9 f5 ef 08 f7 0f 2a 0e 01 ee ef fd
       -0.02080173 -0.2080173 -0.10400865 -0.14561212 -0.14561212 -0.22881904 -0.3536294 0.16641384 -0.18721557 0.31202596 0.87367266 0.29122424 0.02080173 -0.37443113 -0.3536294 -0.06240519
000040 0a 0d 02 c5 be 04 f7 f4 05 f7 e8 f4 0e 20 1d 15
       0.2080173 0.2704225 0.04160346 -1.2273021 -1.3729142 0.08320692 -0.18721557 -0.24962077 0.10400865 -0.18721557 -0.49924153 -0.24962077 0.29122424 0.6656554 0.6032502 0.43683633
000050 09 ad d8 ff fb dc dd 05 0c 14 21 2d 24 08 ef de
       0.18721557 -1.7265437 -0.8320692 -0.02080173 -0.10400865 -0.74886227 -0.72806054 0.10400865 0.24962077 0.4160346 0.6864571 0.9360779 0.74886227 0.16641384 -0.3536294 -0.7072588
000060 dc f8 ec 10 f1 e2 fd fc 0d 29 1a f3 f5 f6 0c 08
       -0.74886227 -0.16641384 -0.4160346 0.3328277 -0.31202596 -0.6240519 -0.06240519 -0.08320692 0.2704225 0.85287094 0.540845 -0.2704225 -0.22881904 -0.2080173 0.24962077 0.16641384
000070 f2 13 df de fa ee 05 0b ee f4 fb 02 b9 02 1a 05
       -0.29122424 0.3952329 -0.6864571 -0.7072588 -0.12481038 -0.37443113 0.10400865 0.22881904 -0.37443113 -0.24962077 -0.10400865 0.04160346 -1.4769229 0.04160346 0.540845 0.10400865
000080 f7 f9 f8 df df f4 07 06 ff f0 d1 05 12 07 fb 06
       -0.18721557 -0.14561212 -0.16641384 -0.6864571 -0.6864571 -0.24962077 0.14561212 0.12481038 -0.02080173 -0.3328277 -0.97768134 0.10400865 0.37443113 0.14561212 -0.10400865 0.12481038
000090 f4 ee e9 03 0e 01 f7 e1 f8 02 0d 12 02 06 fc 03
       -0.24962077 -0.37443113 -0.4784398 0.06240519 0.29122424 0.02080173 -0.18721557 -0.64485365 -0.16641384 0.04160346 0.2704225 0.37443113 0.04160346 0.12481038 -0.08320692 0.06240519
0000a0 fc ff 0a 07 f5 d7 01 03 08 f6 00 19 13 10 0c fa
       -0.08320692 -0.02080173 0.2080173 0.14561212 -0.22881904 -0.85287094 0.02080173 0.06240519 0.16641384 -0.2080173 0.0 0.52004325 0.3952329 0.3328277 0.24962077 -0.12481038
0000b0 f5 0e 13 1e 13 02 fd 03 ff 00 07 04 06 fd fd 07
       -0.22881904 0.29122424 0.3952329 0.6240519 0.3952329 0.04160346 -0.06240519 0.06240519 -0.02080173 0.0 0.14561212 0.08320692 0.12481038 -0.06240519 -0.06240519 0.14561212
0000c0 fa fc fd 00 ff 00 02 02 01 fd 1d fe fd 07 00 ff
       -0.12481038 -0.08320692 -0.06240519 0.0 -0.02080173 0.0 0.04160346 0.04160346 0.02080173 -0.06240519 0.6032502 -0.04160346 -0.06240519 0.14561212 0.0 -0.02080173
0000d0 06 08 fc ea f1 f7 fa fb fa f7 f9 f8 17 09 f1 fc
       0.12481038 0.16641384 -0.08320692 -0.45763808 -0.31202596 -0.18721557 -0.12481038 -0.10400865 -0.12481038 -0.18721557 -0.14561212 -0.16641384 0.4784398 0.18721557 -0.31202596 -0.08320692
0000e0 05 cf 05 04 0e f3 f3 e9 fb 07 12 32 f9 05 03 06
       0.10400865 -1.0192848 0.10400865 0.08320692 0.29122424 -0.2704225 -0.2704225 -0.4784398 -0.10400865 0.14561212 0.37443113 1.0400865 -0.14561212 0.10400865 0.06240519 0.12481038
0000f0 0b 20 16 02 e8 db e6 f0 fa 27 0c 03 0a 27 15 13
       0.22881904 0.6656554 0.45763808 0.04160346 -0.49924153 -0.76966405 -0.540845 -0.3328277 -0.12481038 0.8112675 0.24962077 0.06240519 0.2080173 0.8112675 0.43683633 0.3952329

sequential/quant_dense_1/MatMul;sequential/quant_dense_1/LastValueQuant/FakeQuantWithMinMaxVars i1 [10, 10] scale=0.024456058 zero_point=0
000000 d0 f1 e2 d2 fa 25 f0 2f eb ef 2a 02 b9 c5 fa f8
       -1.1738908 -0.36684087 -0.73368174 -1.1249787 -0.14673635 0.90487415 -0.39129692 1.1494347 -0.5135772 -0.41575298 1.0271544 0.048912115 -1.7363801 -1.4429075 -0.14673635 -0.19564846
000010 0f c3 31 01 e5 ee 22 cf 81 0c 2a e0 0d 13 25 c8
       0.36684087 -1.4918195 1.1983469 0.024456058 -0.66031355 -0.44020903 0.83150595 -1.1983469 -3.1059194 0.2934727 1.0271544 -0.78259385 0.31792876 0.46466509 0.90487415 -1.3695393
000020 11 0e df 29 1f d6 ce 04 23 34 22 f8 1d c2 d7 fe
       0.41575298 0.34238482 -0.80704993 1.0026984 0.75813776 -1.0271544 -1.2228029 0.09782423 0.85596204 1.271715 0.83150595 -0.19564846 0.70922565 -1.5162755 -1.0026984 -0.048912115
000030 d0 fd a3 fb c5 34 2e fc 13 f2 a3 0e cb 1c f6 be
       -1.1738908 -0.07336818 -2.2744133 -0.122280285 -1.4429075 1.271715 1.1249787 -0.09782423 0.46466509 -0.34238482 -2.2744133 0.34238482 -1.2961711 0.68476963 -0.24456057 -1.6140999
000040 22 fe c3 ef fa 3d ed 2d 0f 19 e0 28 07 e8 16 a9
       0.83150595 -0.048912115 -1.4918195 -0.41575298 -0.14673635 1.4918195 -0.46466509 1.1005226 0.36684087 0.61140144 -0.78259385 0.9782423 0.17119241 -0.5869454 0.53803325 -2.127677
000050 02 ea ee fd 03 d8 15 1f 0d 04 22 de 23 12 26 03
       0.048912115 -0.53803325 -0.44020903 -0.07336818 0.07336818 -0.9782423 0.5135772 0.75813776 0.31792876 0.09782423 0.83150595 -0.83150595 0.85596204 0.44020903 0.92933017 0.07336818
000060 c0 0d 08 d9
       -1.5651877 0.31792876 0.19564846 -0.95378625
