mnist_nn/q_aware_model.tflite (tflite, 206504 bytes, 2 tensors)

sequential/quant_dense/MatMul;sequential/quant_dense/LastValueQuant/FakeQuantWithMinMaxVars i1 [256, 784] scale=0.010140954 zero_point=0
-0.03042286 -0.06084572 -0.07098667 -0.03042286 0.010140954 -0.040563814 0.010140954 0.020281907
0.07098667 0.040563814 0.07098667 0.010140954 -0.020281907 0.05070477 -0.020281907 0.040563814
-0.010140954 -0.05070477 0.020281907 0.05070477 0.020281907 0.05070477 0.020281907 -0.020281907
0.07098667 0.040563814 0.040563814 -0.07098667 0.040563814 0.05070477 0.020281907 0.040563814
-0.020281907 -0.040563814 0.05070477 0.010140954 -0.010140954 -0.07098667 0.010140954 -0.040563814
-0.05070477 0.040563814 0.010140954 0.0 0.07098667 0.020281907 0.0 0.0
0.05070477 0.010140954 -0.010140954 -0.010140954 -0.05070477 -0.05070477 -0.05070477 0.020281907
-0.05070477 0.040563814 0.03042286 -0.020281907 0.040563814 0.05070477 -0.040563814 0.040563814
0.010140954 -0.17239621 -0.06084572 -0.23324193 -0.23324193 -0.25352383 -0.18253717 -0.24338289
-0.22310098 0.26366478 0.38535625 0.21296002 0.27380574 -0.07098667 -0.08112763 -0.05070477
0.06084572 -0.03042286 0.020281907 0.040563814 0.020281907 0.05070477 -0.040563814 -0.05070477
0.06084572 0.1521143 0.07098667 -0.14197335 -0.14197335 -0.14197335 -0.25352383 -0.47662482
-0.13183239 -0.06084572 -0.091268584 0.08112763 0.24338289 0.20281908 0.1521143 -0.05070477
0.18253717 0.010140954 -0.17239621 -0.091268584 0.020281907 -0.08112763 0.07098667 0.03042286
0.020281907 0.040563814 0.06084572 0.23324193 0.2839467 -0.010140954 0.0 -0.020281907
0.020281907 -0.03042286 0.19267812 0.16225526 0.07098667 -0.11155049 -0.06084572 0.020281907
-0.17239621 -0.10140954 0.1521143 0.12169144 -0.07098667 0.08112763 0.19267812 -0.010140954
0.06084572 0.6084572 0.3752153 -0.040563814 -0.06084572 0.020281907 0.03042286 -0.091268584
0.34479243 0.36507434 0.20281908 0.1521143 -0.020281907 0.03042286 0.05070477 0.07098667
-0.03042286 0.06084572 -0.14197335 -0.020281907 0.010140954 0.03042286 -0.13183239 -0.07098667
-0.05070477 -0.091268584 0.06084572 0.10140954 0.16225526 0.12169144 -0.11155049 -0.12169144
-0.010140954 0.0 0.18253717 -0.21296002 -0.020281907 -0.10140954 -0.1521143 -0.091268584
0.1521143 0.05070477 0.05070477 0.17239621 0.010140954 0.18253717 -0.05070477 -0.11155049
0.08112763 0.05070477 0.06084572 0.0 -0.020281907 -0.03042286 -0.040563814 -0.22310098
-0.13183239 0.020281907 0.18253717 0.08112763 -0.06084572 0.03042286 0.12169144 -0.24338289
0.08112763 0.03042286 0.091268584 0.03042286 0.020281907 -0.020281907 0.10140954 0.07098667
-0.020281907 0.0 0.03042286 0.08112763 0.19267812 0.091268584 0.07098667 0.11155049
0.10140954 0.010140954 -0.08112763 -0.35493338 -0.020281907 0.22310098 0.18253717 0.18253717
0.020281907 -0.020281907 0.0 0.040563814 0.14197335 0.3042286 0.091268584 -0.1521143
0.020281907 0.040563814 -0.06084572 -0.10140954 0.0 0.020281907 -0.020281907 0.040563814
0.03042286 0.091268584 0.1521143 0.12169144 -0.040563814 -0.020281907 0.010140954 -0.040563814
0.07098667 -0.03042286 0.18253717 0.07098667 0.0 -0.07098667 0.14197335 0.27380574
00000000: fdfa f9fd 01fc 0102 0704 0701 fe05 fe04
00000010: fffb 0205 0205 02fe 0704 04f9 0405 0204
00000020: fefc 0501 fff9 01fc fb04 0100 0702 0000
00000030: 0501 ffff fbfb fb02 fb04 03fe 0405 fc04
00000040: 01ef fae9 e9e7 eee8 ea1a 2615 1bf9 f8fb
00000050: 06fd 0204 0205 fcfb 060f 07f2 f2f2 e7d1
00000060: f3fa f708 1814 0ffb 1201 eff7 02f8 0703
00000070: 0204 0617 1cff 00fe 02fd 1310 07f5 fa02
00000080: eff6 0f0c f908 13ff 063c 25fc fa02 03f7
00000090: 2224 140f fe03 0507 fd06 f2fe 0103 f3f9
000000a0: fbf7 060a 100c f5f4 ff00 12eb fef6 f1f7
000000b0: 0f05 0511 0112 fbf5 0805 0600 fefd fcea
000000c0: f302 1208 fa03 0ce8 0803 0903 02fe 0a07
000000d0: fe00 0308 1309 070b 0a01 f8dd fe16 1212
000000e0: 02fe 0004 0e1e 09f1 0204 faf6 0002 fe04
000000f0: 0309 0f0c fcfe 01fc 07fd 1207 00f9 0e1b

sequential/quant_dense_1/MatMul;sequential/quant_dense_1/LastValueQuant/FakeQuantWithMinMaxVars i1 [10, 256] scale=0.011213669 zero_point=0
-0.6728201 0.13456403 -0.022427337 0.14577769 0.30276906 0.033641007 -0.6952475 0.14577769
0.16820502 -0.8410252 -0.40369207 0.0 0.14577769 0.1794187 0.15699136 -0.7625295
-0.20184603 0.20184603 -0.30276906 0.033641007 -0.8185978 0.044854674 -0.7961705 0.34762374
-0.33641005 -0.10092302 0.14577769 0.16820502 0.15699136 0.12335035 0.22427337 0.022427337
-0.011213669 -0.20184603 -0.87466615 -0.033641007 -0.033641007 -0.08970935 -0.40369207 0.22427337
-0.33641005 -0.10092302 -0.20184603 -0.7176748 0.011213669 -0.31398273 -0.07849568 0.23548704
0.12335035 -0.38126475 0.06728201 0.29155537 -0.26912805 0.1794187 -0.25791436 -0.6167518
-0.40369207 -0.033641007 -0.70646113 0.056068342 -0.06728201 0.112136684 -0.20184603 -0.54946977
-0.3251964 0.13456403 -0.42611942 -0.2467007 -0.1794187 -0.06728201 0.25791436 0.22427337
-0.20184603 -0.3588374 -0.6391791 -0.20184603 -0.42611942 -0.7849568 0.15699136 0.14577769
-0.5943244 -0.29155537 0.14577769 -0.2467007 -0.21305971 0.14577769 0.06728201 -0.033641007
0.1794187 0.15699136 0.19063237 0.14577769 -0.12335035 -0.044854674 -0.033641007 0.19063237
-0.12335035 -0.20184603 -0.3924784 0.033641007 0.20184603 0.13456403 -0.06728201 -0.022427337
-0.3588374 -0.7401021 0.044854674 -0.112136684 0.22427337 0.0 -0.1794187 -0.5943244
0.1794187 -0.07849568 0.5943244 0.112136684 -0.38126475 -0.52704245 -0.2803417 0.14577769
0.19063237 -1.1213669 -0.3924784 -0.13456403 -0.2803417 0.23548704 0.16820502 0.21305971
0.112136684 -0.10092302 -0.5158287 -0.38126475 -0.22427337 -0.37005106 -0.3588374 -0.38126475
0.08970935 -0.66160643 -0.30276906 0.06728201 -0.16820502 0.056068342 0.26912805 0.10092302
-0.42611942 0.25791436 -0.45976043 -0.9643755 0.112136684 0.14577769 -0.044854674 0.23548704
0.15699136 -0.044854674 -0.38126475 0.13456403 -0.54946977 0.20184603 0.52704245 -0.19063237
0.08970935 -0.19063237 0.42611942 -0.5158287 -0.3924784 0.10092302 -0.52704245 0.13456403
-0.056068342 -0.85223883 0.12335035 -0.07849568 0.19063237 -0.37005106 0.13456403 0.21305971
0.1794187 -0.044854674 0.07849568 0.29155537 -0.044854674 0.10092302 -0.5158287 0.16820502
-0.033641007 0.12335035 0.0 -0.044854674 -0.33641005 -0.23548704 -0.13456403 0.22427337
-0.60553813 -0.31398273 0.29155537 0.2467007 -0.7401021 0.34762374 0.0 -0.29155537
0.07849568 0.14577769 0.4709741 0.0 -0.23548704 0.31398273 -0.85223883 -0.43733308
-0.033641007 -0.22427337 0.044854674 -0.66160643 -0.06728201 0.10092302 0.1794187 0.10092302
-0.40369207 0.21305971 -0.5158287 -0.43733308 0.42611942 0.19063237 -0.37005106 -0.37005106
0.2467007 -0.2467007 -0.16820502 0.011213669 -0.15699136 -0.21305971 -0.2467007 -0.3588374
-0.3924784 0.10092302 -0.25791436 0.14577769 0.033641007 0.07849568 -0.54946977 0.056068342
0.3924784 0.033641007 0.37005106 0.26912805 -0.40369207 0.13456403 -0.31398273 0.112136684
0.056068342 -0.12335035 0.34762374 -0.6391791 -0.23548704 -0.34762374 0.033641007 -0.60553813
00000000: c40c fe0d 1b03 c20d 0fb5 dc00 0d10 0ebc
00000010: ee12 e503 b704 b91f e2f7 0d0f 0e0b 1402
00000020: ffee b2fd fdf8 dc14 e2f7 eec0 01e4 f915
00000030: 0bde 061a e810 e9c9 dcfd c105 fa0a eecf
00000040: e30c daea f0fa 1714 eee0 c7ee daba 0e0d
00000050: cbe6 0dea ed0d 06fd 100e 110d f5fc fd11
00000060: f5ee dd03 120c fafe e0be 04f6 1400 f0cb
00000070: 10f9 350a ded1 e70d 119c ddf4 e715 0f13
00000080: 0af7 d2de ecdf e0de 08c5 e506 f105 1809
00000090: da17 d7aa 0a0d fc15 0efc de0c cf12 2fef
000000a0: 08ef 26d2 dd09 d10c fbb4 0bf9 11df 0c13
000000b0: 10fc 071a fc09 d20f fd0b 00fc e2eb f414
000000c0: cae4 1a16 be1f 00e6 070d 2a00 eb1c b4d9
000000d0: fdec 04c5 fa09 1009 dc13 d2d9 2611 dfdf
000000e0: 16ea f101 f2ed eae0 dd09 e90d 0307 cf05
000000f0: 2303 2118 dc0c e40a 05f5 1fc7 ebe1 03ca
