mnist_nn/q_aware_model.tflite (tflite, 4312 bytes, 2 tensors)

sequential/quant_dense/MatMul;sequential/quant_dense/LastValueQuant/FakeQuantWithMinMaxVars i1 [10, 196] scale=0.026248474 zero_point=0
00000000: fc05 0106 0604 0704 ff00 fd03 0100 01e8
00000010: f014 3f51 00fd e3f7 1705 fd01 002a 1e09
00000020: 0810 0902 0709 0dff 1906 0109 1b14 1e11
00000030: 050c 0a01 0204 1606 f7fc 2c22 190f 01f3
00000040: f2f9 05ff 0301 edd4 1514 0cfe f3e3 f503
00000050: 04fd defc e6e9 e8f7 0103 0200 090e 1c44
00000060: 22ff eae6 eeff f60d 1d23 1c18 f8f9 2300
00000070: f50f e3f6 0f1a 2b13 1b08 0305 22fc fdf0
00000080: f1f3 f604 0009 0d03 0304 fc04 eaf9 f705
00000090: 01fc 0a0b 0402 f7f7 f6ff f6f9 f1f9 0208
000000a0: 130f 0107 0501 fcff 06db c501 f714 0915
000000b0: 0af2 f3e5 dd04 04fe 01fe fc03 fafb 0401
000000c0: fe01 fa01 fbff 04fb 0603 f90d 0503 0405
000000d0: fe02 050b 03f8 04fb 03fa fee8 f6e7 0903
000000e0: 04f8 f901 040b 1516 0bfc eae1 fa04 fc08
000000f0: f8ef f700 0b19 1106 f8f6 e700 f3f6 f6ea
-0.104993895 0.13124236 0.026248474 0.15749085 0.15749085 0.104993895 0.18373932 0.104993895
-0.026248474 0.0 -0.078745425 0.078745425 0.026248474 0.0 0.026248474 -0.6299634
-0.41997558 0.52496946 1.6536539 2.1261263 0.0 -0.078745425 -0.76120573 -0.23623626
0.6037149 0.13124236 -0.078745425 0.026248474 0.0 1.102436 0.7874542 0.23623626
0.20998779 0.41997558 0.23623626 0.052496947 0.18373932 0.23623626 0.34123015 -0.026248474
0.65621185 0.15749085 0.026248474 0.23623626 0.70870876 0.52496946 0.7874542 0.44622406
0.13124236 0.3149817 0.26248473 0.026248474 0.052496947 0.104993895 0.5774664 0.15749085
-0.23623626 -0.104993895 1.1549329 0.8924481 0.65621185 0.3937271 0.026248474 -0.34123015
-0.36747864 -0.18373932 0.13124236 -0.026248474 0.078745425 0.026248474 -0.498721 -1.1549329
0.551218 0.52496946 0.3149817 -0.052496947 -0.34123015 -0.76120573 -0.2887332 0.078745425
0.104993895 -0.078745425 -0.8924481 -0.104993895 -0.6824603 -0.6037149 -0.6299634 -0.23623626
0.026248474 0.078745425 0.052496947 0.0 0.23623626 0.36747864 0.7349573 1.7848963
0.8924481 -0.026248474 -0.5774664 -0.6824603 -0.47247252 -0.026248474 -0.26248473 0.34123015
0.76120573 0.9186966 0.7349573 0.6299634 -0.20998779 -0.18373932 0.9186966 0.0
-0.2887332 0.3937271 -0.76120573 -0.26248473 0.3937271 0.6824603 1.1286844 0.498721
0.70870876 0.20998779 0.078745425 0.13124236 0.8924481 -0.104993895 -0.078745425 -0.41997558
-0.3937271 -0.34123015 -0.26248473 0.104993895 0.0 0.23623626 0.34123015 0.078745425
0.078745425 0.104993895 -0.104993895 0.104993895 -0.5774664 -0.18373932 -0.23623626 0.13124236
0.026248474 -0.104993895 0.26248473 0.2887332 0.104993895 0.052496947 -0.23623626 -0.23623626
-0.26248473 -0.026248474 -0.26248473 -0.18373932 -0.3937271 -0.18373932 0.052496947 0.20998779
0.498721 0.3937271 0.026248474 0.18373932 0.13124236 0.026248474 -0.104993895 -0.026248474
0.15749085 -0.97119355 -1.5486599 0.026248474 -0.23623626 0.52496946 0.23623626 0.551218
0.26248473 -0.36747864 -0.34123015 -0.70870876 -0.9186966 0.104993895 0.104993895 -0.052496947
0.026248474 -0.052496947 -0.104993895 0.078745425 -0.15749085 -0.13124236 0.104993895 0.026248474
-0.052496947 0.026248474 -0.15749085 0.026248474 -0.13124236 -0.026248474 0.104993895 -0.13124236
0.15749085 0.078745425 -0.18373932 0.34123015 0.13124236 0.078745425 0.104993895 0.13124236
-0.052496947 0.052496947 0.13124236 0.2887332 0.078745425 -0.20998779 0.104993895 -0.13124236
0.078745425 -0.15749085 -0.052496947 -0.6299634 -0.26248473 -0.65621185 0.23623626 0.078745425
0.104993895 -0.20998779 -0.18373932 0.026248474 0.104993895 0.2887332 0.551218 0.5774664
0.2887332 -0.104993895 -0.5774664 -0.8137027 -0.15749085 0.104993895 -0.104993895 0.20998779
-0.20998779 -0.44622406 -0.23623626 0.0 0.2887332 0.65621185 0.44622406 0.15749085
-0.20998779 -0.26248473 -0.65621185 0.0 -0.34123015 -0.26248473 -0.26248473 -0.5774664

sequential/quant_dense_1/MatMul;sequential/quant_dense_1/LastValueQuant/FakeQuantWithMinMaxVars i1 [10, 10] scale=0.018078508 zero_point=0
00000000: e52f 9739 db27 01af 2fb3 bdb8 2ab1 43e5
00000010: f2ed a23d 1023 b904 c1f1 2dd1 004e e708
00000020: 1de0 03d3 f800 400f 1df1 2e23 d0df 9914
00000030: a6de cb03 30e2 c928 28fa 1be5 23a5 c4e1
00000040: f03d 811d bde3 e7c0 db4b e591 3c19 df48
00000050: 2818 0acf 21f4 0fbc d7c8 fa12 edfc 2cc5
00000060: eb3a d583
-0.48811972 0.84968984 -1.8982433 1.0304749 -0.6689048 0.7050618 0.018078508 -1.4643592
0.84968984 -1.3920451 -1.2112601 -1.3016526 0.7592973 -1.4282022 1.2112601 -0.48811972
-0.2530991 -0.34349164 -1.6993797 1.1027889 0.28925613 0.63274777 -1.2835741 0.07231403
-1.1389459 -0.27117762 0.8135328 -0.84968984 0.0 1.4101236 -0.4519627 0.14462806
0.52427673 -0.57851225 0.054235525 -0.8135328 -0.14462806 0.0 1.1570245 0.27117762
0.52427673 -0.27117762 0.83161134 0.63274777 -0.8677684 -0.59659076 -1.8620863 0.36157015
-1.6270657 -0.61466926 -0.95816094 0.054235525 0.8677684 -0.54235524 -0.99431795 0.7231403
0.7231403 -0.10847105 0.48811972 -0.48811972 0.63274777 -1.6451442 -1.0847105 -0.56043375
-0.28925613 1.1027889 -2.2959704 0.52427673 -1.2112601 -0.52427673 -0.4519627 -1.1570245
-0.6689048 1.3558881 -0.48811972 -2.0067143 1.0847105 0.4519627 -0.59659076 1.3016526
0.7231403 0.4338842 0.18078507 -0.8858469 0.59659076 -0.2169421 0.27117762 -1.2293385
-0.7412188 -1.0123965 -0.10847105 0.32541314 -0.34349164 -0.07231403 0.7954543 -1.0666319
-0.37964866 1.0485535 -0.7773758 -2.2598135
