mnist_nn/q_aware_model.tflite (tflite, 4312 bytes, 2 tensors)

sequential/quant_dense/MatMul;sequential/quant_dense/LastValueQuant/FakeQuantWithMinMaxVars i1 [10, 196] scale=0.025353404 zero_point=0
00000000: 00fc fbfd fc01 12fc 04ff fa06 0206 fb10
00000010: 1c13 d7c4 eff8 0318 0715 f905 03f4 f1f3
00000020: f7f3 01f9 f900 0113 0701 070e f5f9 030d
00000030: 100f 100f 0c0a 0e06 01fe e6fd 0407 171b
00000040: 1608 080d 2efb 0014 f9f5 0d15 1e1b fcf9
00000050: 030f 2e03 101f 2819 0f0e 110f 0b06 fcf0
00000060: d7fb 1208 f8f7 0200 03fa fe00 0106 c802
00000070: 10f2 faf4 edf6 e5f8 fe00 faf7 c301 1b0c
00000080: f4fd fdf7 f7fe fe02 f2f3 ef06 18e6 fc04
00000090: 0401 0402 faf1 fcf2 f8ff 09f5 f803 0309
000000a0: 0f10 05ee f20c f603 041a 3607 1f1c 2211
000000b0: 151d 1413 04fa 0403 fa05 fffe ff06 00fc
000000c0: 0006 05fd fffe fffb 0700 f9fd ff06 fcfc
000000d0: 05ff 01ea c4da c4ae 95b9 fa19 0ffb 2606
000000e0: 01d4 cbf1 e4f3 f2fb 01ff 0014 1506 fa05
000000f0: f60a 0f07 f7ec f907 0517 25fd 0419 f90e
0.0 -0.101413615 -0.12676702 -0.07606021 -0.101413615 0.025353404 0.45636126 -0.101413615
0.101413615 -0.025353404 -0.15212043 0.15212043 0.050706808 0.15212043 -0.12676702 0.40565446
0.7098953 0.48171467 -1.0394895 -1.5212042 -0.43100786 -0.20282723 0.07606021 0.6084817
0.17747383 0.53242147 -0.17747383 0.12676702 0.07606021 -0.30424085 -0.38030106 -0.32959425
-0.22818063 -0.32959425 0.025353404 -0.17747383 -0.17747383 0.0 0.025353404 0.48171467
0.17747383 0.025353404 0.17747383 0.35494766 -0.27888745 -0.17747383 0.07606021 0.32959425
0.40565446 0.38030106 0.40565446 0.38030106 0.30424085 0.25353405 0.35494766 0.15212043
0.025353404 -0.050706808 -0.6591885 -0.07606021 0.101413615 0.17747383 0.5831283 0.6845419
0.5577749 0.20282723 0.20282723 0.32959425 1.1662565 -0.12676702 0.0 0.5070681
-0.17747383 -0.27888745 0.32959425 0.53242147 0.7606021 0.6845419 -0.101413615 -0.17747383
0.07606021 0.38030106 1.1662565 0.07606021 0.40565446 0.7859555 1.0141362 0.6338351
0.38030106 0.35494766 0.43100786 0.38030106 0.27888745 0.15212043 -0.101413615 -0.40565446
-1.0394895 -0.12676702 0.45636126 0.20282723 -0.20282723 -0.22818063 0.050706808 0.0
0.07606021 -0.15212043 -0.050706808 0.0 0.025353404 0.15212043 -1.4197906 0.050706808
0.40565446 -0.35494766 -0.15212043 -0.30424085 -0.48171467 -0.25353405 -0.6845419 -0.20282723
-0.050706808 0.0 -0.15212043 -0.22818063 -1.5465577 0.025353404 0.6845419 0.30424085
-0.30424085 -0.07606021 -0.07606021 -0.22818063 -0.22818063 -0.050706808 -0.050706808 0.050706808
-0.35494766 -0.32959425 -0.43100786 0.15212043 0.6084817 -0.6591885 -0.101413615 0.101413615
0.101413615 0.025353404 0.101413615 0.050706808 -0.15212043 -0.38030106 -0.101413615 -0.35494766
-0.20282723 -0.025353404 0.22818063 -0.27888745 -0.20282723 0.07606021 0.07606021 0.22818063
0.38030106 0.40565446 0.12676702 -0.45636126 -0.35494766 0.30424085 -0.25353405 0.07606021
0.101413615 0.6591885 1.3690838 0.17747383 0.7859555 0.7098953 0.8620157 0.43100786
0.53242147 0.7352487 0.5070681 0.48171467 0.101413615 -0.15212043 0.101413615 0.07606021
-0.15212043 0.12676702 -0.025353404 -0.050706808 -0.025353404 0.15212043 0.0 -0.101413615
0.0 0.15212043 0.12676702 -0.07606021 -0.025353404 -0.050706808 -0.025353404 -0.12676702
0.17747383 0.0 -0.17747383 -0.07606021 -0.025353404 0.15212043 -0.101413615 -0.101413615
0.12676702 -0.025353404 0.025353404 -0.5577749 -1.5212042 -0.96342933 -1.5212042 -2.078979
-2.712814 -1.8000916 -0.15212043 0.6338351 0.38030106 -0.12676702 0.96342933 0.15212043
0.025353404 -1.1155498 -1.3437304 -0.38030106 -0.7098953 -0.32959425 -0.35494766 -0.12676702
0.025353404 -0.025353404 0.0 0.5070681 0.53242147 0.15212043 -0.15212043 0.12676702
-0.25353405 0.25353405 0.38030106 0.17747383 -0.22818063 -0.5070681 -0.17747383 0.17747383
0.12676702 0.5831283 0.93807596 -0.07606021 0.101413615 0.6338351 -0.17747383 0.35494766

sequential/quant_dense_1/MatMul;sequential/quant_dense_1/LastValueQuant/FakeQuantWithMinMaxVars i1 [10, 10] scale=0.016701499 zero_point=0
00000000: 2aca 46ef 02fa 148a a6ab 14de a2cb d637
00000010: c997 3320 9743 19e7 0d21 48e8 30f8 02e7
00000020: cce6 be10 3e14 ba29 be1a 01ea 2cad 9726
00000030: f01c 2a4e 13a6 aae5 f304 d708 eab2 3cba
00000040: 2449 819e c703 194f b923 2b53 1813 0495
00000050: ffdf 0f48 8ae6 d7e6 f620 25a5 e619 e28c
00000060: d143 01e8
0.701463 -0.9018809 1.1691049 -0.28392547 0.033402998 -0.100209 0.33402997 -1.9707769
-1.503135 -1.4196274 0.33402997 -0.56785095 -1.5699409 -0.88517946 -0.701463 0.91858244
-0.91858244 -1.7536573 0.8517764 0.53444797 -1.7536573 1.1190004 0.41753748 -0.41753748
0.21711949 0.5511495 1.202508 -0.400836 0.801672 -0.13361199 0.033402998 -0.41753748
-0.86847794 -0.43423897 -1.102299 0.26722398 1.0354929 0.33402997 -1.1691049 0.68476146
-1.102299 0.43423897 0.016701499 -0.36743298 0.73486596 -1.3862244 -1.7536573 0.63465697
-0.26722398 0.46764198 0.701463 1.302717 0.31732848 -1.503135 -1.4363289 -0.45094046
-0.21711949 0.066805996 -0.68476146 0.13361199 -0.36743298 -1.302717 1.00209 -1.1691049
0.601254 1.2192094 -2.1210904 -1.6367469 -0.9519854 0.0501045 0.41753748 1.3194184
-1.1858064 0.58455247 0.71816444 1.3862244 0.400836 0.31732848 0.066805996 -1.7870604
-0.016701499 -0.5511495 0.2505225 1.202508 -1.9707769 -0.43423897 -0.68476146 -0.43423897
-0.16701499 0.53444797 0.61795545 -1.5198364 -0.43423897 0.41753748 -0.501045 -1.9373739
-0.78497046 1.1190004 0.016701499 -0.400836
