mnist_nn/q_aware_model.tflite (tflite, 4312 bytes, 2 tensors)

sequential/quant_dense/MatMul;sequential/quant_dense/LastValueQuant/FakeQuantWithMinMaxVars i1 [10, 196] scale=0.021428289 zero_point=0
0	0xfe	-0.042856578
1	0xf9	-0.14999802
2	0xfc	-0.085713156
3	0x01	0.021428289
4	0x06	0.12856974
5	0x08	0.17142631
6	0xf1	-0.32142434
7	0x0e	0.29999605
8	0x0b	0.23571117
9	0x04	0.085713156
10	0xf8	-0.17142631
11	0x08	0.17142631
12	0x01	0.021428289
13	0x02	0.042856578
14	0x07	0.14999802
15	0xe4	-0.5999921
16	0xde	-0.7285618
17	0xda	-0.81427497
18	0xa8	-1.8856894
19	0xb6	-1.5856934
20	0xa7	-1.9071177
21	0xbe	-1.4142671
22	0xe3	-0.6214204
23	0xea	-0.47142234
24	0xf1	-0.32142434
25	0xdc	-0.7714184
26	0x15	0.44999406
27	0x03	0.06428487
28	0xff	-0.021428289
29	0x05	0.10714144
30	0xed	-0.40713748
31	0xc7	-1.2214124
32	0xb7	-1.5642651
33	0xcb	-1.1356993
34	0xce	-1.0714145
35	0xce	-1.0714145
36	0xdf	-0.70713353
37	0xe9	-0.49285063
38	0xf5	-0.23571117
39	0xe6	-0.5571355
40	0xfe	-0.042856578
41	0xfb	-0.10714144
42	0x04	0.085713156
43	0x24	0.7714184
44	0xfa	-0.12856974
45	0x0f	0.32142434
46	0x19	0.53570724
47	0x21	0.70713353
48	0x0b	0.23571117
49	0x07	0.14999802
50	0x08	0.17142631
51	0x03	0.06428487
52	0x01	0.021428289
53	0x06	0.12856974
54	0xfe	-0.042856578
55	0xff	-0.021428289
56	0x11	0.3642809
57	0x2a	0.8999881
58	0xfe	-0.042856578
59	0x18	0.51427895
60	0x1f	0.66427696
61	0x18	0.51427895
62	0x10	0.34285262
63	0x09	0.1928546
64	0x00	0.0
65	0x12	0.3857092
66	0x17	0.49285063
67	0x2f	1.0071295
68	0x3f	1.3499821
69	0x03	0.06428487
70	0x20	0.68570524
71	0x23	0.7499901
72	0x01	0.021428289
73	0x0d	0.27856776
74	0x12	0.3857092
75	0x0d	0.27856776
76	0xff	-0.021428289
77	0x00	0.0
78	0x18	0.51427895
79	0x0f	0.32142434
80	0x13	0.40713748
81	0x14	0.42856577
82	0x0e	0.29999605
83	0xfe	-0.042856578
84	0x10	0.34285262
85	0x2d	0.964273
86	0x0d	0.27856776
87	0xfc	-0.085713156
88	0x00	0.0
89	0x0f	0.32142434
90	0xee	-0.3857092
91	0x06	0.12856974
92	0x0b	0.23571117
93	0x15	0.44999406
94	0x07	0.14999802
95	0xe4	-0.5999921
96	0x0b	0.23571117
97	0x02	0.042856578
98	0xe9	-0.49285063
99	0x2b	0.9214164
100	0x0b	0.23571117
101	0x0f	0.32142434
102	0x10	0.34285262
103	0x1e	0.6428487
104	0x0c	0.25713947
105	0x0b	0.23571117
106	0x2a	0.8999881
107	0x18	0.51427895
108	0xfd	-0.06428487
109	0xfe	-0.042856578
110	0x07	0.14999802
111	0x03	0.06428487
112	0x15	0.44999406
113	0xf4	-0.25713947
114	0xfb	-0.10714144
115	0x0b	0.23571117
116	0x0b	0.23571117
117	0xfe	-0.042856578
118	0x1e	0.6428487
119	0x2a	0.8999881
120	0x2a	0.8999881
121	0xfc	-0.085713156
122	0xfe	-0.042856578
123	0xf7	-0.1928546
124	0x0f	0.32142434
125	0x05	0.10714144
126	0xe7	-0.53570724
127	0x27	0.83570325
128	0x0d	0.27856776
129	0xfa	-0.12856974
130	0xf2	-0.29999605
131	0xe6	-0.5571355
132	0xf9	-0.14999802
133	0x05	0.10714144
134	0xec	-0.42856577
135	0xec	-0.42856577
136	0xf3	-0.27856776
137	0xf3	-0.27856776
138	0x05	0.10714144
139	0xfe	-0.042856578
140	0xeb	-0.44999406
141	0x07	0.14999802
142	0xda	-0.81427497
143	0xe3	-0.6214204
144	0xe2	-0.6428487
145	0xdf	-0.70713353
146	0xe0	-0.68570524
147	0xe1	-0.66427696
148	0xed	-0.40713748
149	0xe3	-0.6214204
150	0xee	-0.3857092
151	0x02	0.042856578
152	0x03	0.06428487
153	0xf8	-0.17142631
154	0xf1	-0.32142434
155	0xca	-1.1571276
156	0xff	-0.021428289
157	0xfa	-0.12856974
158	0xf7	-0.1928546
159	0xf9	-0.14999802
160	0xf3	-0.27856776
161	0xea	-0.47142234
162	0xf5	-0.23571117
163	0xf9	-0.14999802
164	0x00	0.0
165	0xfd	-0.06428487
166	0x10	0.34285262
167	0xfb	-0.10714144
168	0x02	0.042856578
169	0x0b	0.23571117
170	0x18	0.51427895
171	0x14	0.42856577
172	0x15	0.44999406
173	0x1d	0.6214204
174	0x13	0.40713748
175	0x29	0.8785598
176	0x1f	0.66427696
177	0x1b	0.5785638
178	0x1b	0.5785638
179	0xf7	-0.1928546
180	0xf9	-0.14999802
181	0x07	0.14999802
182	0x01	0.021428289
183	0x06	0.12856974
184	0x01	0.021428289
185	0xfa	-0.12856974
186	0xfe	-0.042856578
187	0xfb	-0.10714144
188	0x02	0.042856578
189	0x08	0.17142631
190	0x06	0.12856974
191	0x02	0.042856578
192	0xff	-0.021428289
193	0x01	0.021428289
194	0xff	-0.021428289
195	0xfd	-0.06428487
196	0xfa	-0.12856974
197	0x02	0.042856578
198	0xfb	-0.10714144
199	0x05	0.10714144
200	0x02	0.042856578
201	0xfd	-0.06428487
202	0xef	-0.3642809
203	0xee	-0.3857092
204	0xfc	-0.085713156
205	0xfe	-0.042856578
206	0x00	0.0
207	0x00	0.0
208	0x02	0.042856578
209	0x04	0.085713156
210	0x03	0.06428487
211	0xf6	-0.21428289
212	0x18	0.51427895
213	0xf7	-0.1928546
214	0xdc	-0.7714184
215	0xf8	-0.17142631
216	0x09	0.1928546
217	0x08	0.17142631
218	0x12	0.3857092
219	0x01	0.021428289
220	0x0a	0.21428289
221	0xf0	-0.34285262
222	0x0d	0.27856776
223	0x04	0.085713156
224	0xf8	-0.17142631
225	0x3d	1.3071256
226	0x48	1.5428368
227	0x21	0.70713353
228	0x15	0.44999406
229	0x07	0.14999802
230	0x05	0.10714144
231	0x0a	0.21428289
232	0x11	0.3642809
233	0x13	0.40713748
234	0x0b	0.23571117
235	0x0e	0.29999605
236	0x1a	0.5571355
237	0x02	0.042856578
238	0x08	0.17142631
239	0x14	0.42856577
240	0x37	1.1785558
241	0x1d	0.6214204
242	0x12	0.3857092
243	0xf5	-0.23571117
244	0xed	-0.40713748
245	0xef	-0.3642809
246	0xf4	-0.25713947
247	0xfd	-0.06428487
248	0xff	-0.021428289
249	0x1f	0.66427696
250	0xdf	-0.70713353
251	0xfc	-0.085713156
252	0xff	-0.021428289
253	0x39	1.2214124
254	0x32	1.0714145
255	0x0c	0.25713947

sequential/quant_dense_1/MatMul;sequential/quant_dense_1/LastValueQuant/FakeQuantWithMinMaxVars i1 [10, 10] scale=0.017989645 zero_point=0
0	0xba	-1.2592751
1	0xa1	-1.7090162
2	0x12	0.32381362
3	0x45	1.2412854
4	0x0a	0.17989644
5	0xb6	-1.3312337
6	0x02	0.03597929
7	0x00	0.0
8	0x2f	0.8455133
9	0xce	-0.89948225
10	0xca	-0.9714408
11	0xfa	-0.10793787
12	0x15	0.37778255
13	0x90	-2.0148401
14	0x21	0.59365827
15	0xeb	-0.37778255
16	0x03	0.053968936
17	0xa8	-1.5830888
18	0x35	0.95345116
19	0x3d	1.0973684
20	0xfb	-0.08994822
21	0xf0	-0.28783432
22	0x1e	0.53968936
23	0xf6	-0.17989644
24	0x25	0.66561687
25	0x28	0.7195858
26	0xc0	-1.1513373
27	0xc3	-1.0973684
28	0x3e	1.115358
29	0xaf	-1.4571612
30	0x00	0.0
31	0x2a	0.7555651
32	0xd0	-0.863503
33	0x00	0.0
34	0x18	0.4317515
35	0xea	-0.3957722
36	0x98	-1.870923
37	0x02	0.03597929
38	0x2c	0.7915444
39	0x22	0.6116479
40	0x15	0.37778255
41	0x4b	1.3492234
42	0x01	0.017989645
43	0xe8	-0.4317515
44	0xaa	-1.5471095
45	0xfb	-0.08994822
46	0x12	0.32381362
47	0x0e	0.25185502
48	0xe2	-0.53968936
49	0xde	-0.6116479
50	0xf1	-0.26984468
51	0xf0	-0.28783432
52	0x0b	0.1978861
53	0xf6	-0.17989644
54	0x21	0.59365827
55	0xbb	-1.2412854
56	0xfc	-0.07195858
57	0x51	1.4571612
58	0xa4	-1.6550473
59	0xe3	-0.5216997
60	0x81	-2.284685
61	0xf5	-0.1978861
62	0x52	1.4751508
63	0x1d	0.5216997
64	0xe8	-0.4317515
65	0x19	0.44974113
66	0xfd	-0.053968936
67	0x09	0.16190681
68	0x98	-1.870923
69	0xb5	-1.3492234
70	0x3c	1.0793787
71	0x2a	0.7555651
72	0xe2	-0.53968936
73	0x22	0.6116479
74	0xe9	-0.41376182
75	0xb1	-1.4211819
76	0xa9	-1.5650991
77	0xa6	-1.619068
78	0x28	0.7195858
79	0x1f	0.557679
80	0xe9	-0.41376182
81	0x22	0.6116479
82	0xa2	-1.6910266
83	0xfc	-0.07195858
84	0x08	0.14391716
85	0x04	0.07195858
86	0x32	0.89948225
87	0xc6	-1.0433995
88	0xe4	-0.50371003
89	0x1e	0.53968936
90	0x06	0.10793787
91	0xa8	-1.5830888
92	0xbd	-1.2053062
93	0x03	0.053968936
94	0x8e	-2.0508194
95	0x17	0.41376182
96	0xe1	-0.557679
97	0xfe	-0.03597929
98	0xff	-0.017989645
99	0x2e	0.82752365
