basic/mnist_nn/q_aware_model.tflite (tflite, 4312 bytes, 2 tensors)

sequential/quant_dense/MatMul;sequential/quant_dense/LastValueQuant/FakeQuantWithMinMaxVars i1 [10, 196] scale=0.01964039 zero_point=0
000000 08 00 04 07 fa f8 17 f5 02 04 06 fa fe 01 fc ec
       0.15712312 0.0 0.07856156 0.13748273 -0.11784234 -0.15712312 0.45172897 -0.21604429 0.03928078 0.07856156 0.11784234 -0.11784234 -0.03928078 0.01964039 -0.07856156 -0.39280778
000010 e7 02 16 1e 01 05 0b 17 37 2e 09 fb fb d6 f2 f5
       -0.49100974 0.03928078 0.43208858 0.5892117 0.01964039 0.098201945 0.21604429 0.45172897 1.0802214 0.90345794 0.1767635 -0.098201945 -0.098201945 -0.8248964 -0.27496547 -0.21604429
000020 09 03 fa 07 1f 1f 35 33 1b fd 06 df 14 ff 0b f7
       0.1767635 0.05892117 -0.11784234 0.13748273 0.6088521 0.6088521 1.0409406 1.0016599 0.53029054 -0.05892117 0.11784234 -0.64813286 0.39280778 -0.01964039 0.21604429 -0.1767635
000030 e4 e7 eb ec f1 23 4b 02 fe 0c 0a 02 ff fc e4 c7
       -0.54993093 -0.49100974 -0.4124482 -0.39280778 -0.29460585 0.68741363 1.4730293 0.03928078 -0.03928078 0.23568468 0.19640389 0.03928078 -0.01964039 -0.07856156 -0.54993093 -1.1195022
000040 d4 e4 f7 02 23 08 fc d3 fb 04 12 07 f9 cb f1 f4
       -0.86417717 -0.54993093 -0.1767635 0.03928078 0.68741363 0.15712312 -0.07856156 -0.88381755 -0.098201945 0.07856156 0.353527 0.13748273 -0.13748273 -1.0409406 -0.29460585 -0.23568468
000050 f7 f6 f6 f9 08 ee e0 0b 0e 1d 1a f1 04 01 10 2e
       -0.1767635 -0.19640389 -0.19640389 -0.13748273 0.15712312 -0.353527 -0.6284925 0.21604429 0.27496547 0.5695713 0.51065016 -0.29460585 0.07856156 0.01964039 0.31424624 0.90345794
000060 1d 07 15 01 01 0b 0a 1d 1f 20 17 0b fb fe 16 05
       0.5695713 0.13748273 0.4124482 0.01964039 0.01964039 0.21604429 0.19640389 0.5695713 0.6088521 0.6284925 0.45172897 0.21604429 -0.098201945 -0.03928078 0.43208858 0.098201945
000070 e9 01 dd 09 1d 1b 32 2d 17 07 0c fa 25 04 ed fb
       -0.45172897 0.01964039 -0.68741363 0.1767635 0.5695713 0.53029054 0.9820195 0.88381755 0.45172897 0.13748273 0.23568468 -0.11784234 0.7266944 0.07856156 -0.3731674 -0.098201945
000080 fa 02 01 0e 29 19 10 00 04 04 fd 04 df f1 ea e9
       -0.11784234 0.03928078 0.01964039 0.27496547 0.805256 0.49100974 0.31424624 0.0 0.07856156 0.07856156 -0.05892117 0.07856156 -0.64813286 -0.29460585 -0.43208858 -0.45172897
000090 02 0b 17 15 16 12 0c 11 de f9 ff 09 fe c3 f7 00
       0.03928078 0.21604429 0.45172897 0.4124482 0.43208858 0.353527 0.23568468 0.33388662 -0.66777325 -0.13748273 -0.01964039 0.1767635 -0.03928078 -1.1980637 -0.1767635 0.0
0000a0 0d 0f 08 1d 20 04 00 07 fd b9 b2 c1 b6 cf ca e3
       0.25532508 0.29460585 0.15712312 0.5695713 0.6284925 0.07856156 0.0 0.13748273 -0.05892117 -1.3944677 -1.5319504 -1.2373445 -1.4533888 -0.9623791 -1.0605811 -0.5695713
0000b0 e3 dc db ff ef 02 07 fe fe 06 fa fd f7 04 04 02
       -0.5695713 -0.707054 -0.7266944 -0.01964039 -0.33388662 0.03928078 0.13748273 -0.03928078 -0.03928078 0.11784234 -0.11784234 -0.05892117 -0.1767635 0.07856156 0.07856156 0.03928078
0000c0 fd 07 04 fd 01 f7 09 05 06 fe 11 ed fc 06 05 f8
       -0.05892117 0.13748273 0.07856156 -0.05892117 0.01964039 -0.1767635 0.1767635 0.098201945 0.11784234 -0.03928078 0.33388662 -0.3731674 -0.07856156 0.11784234 0.098201945 -0.15712312
0000d0 ff 01 fe 20 24 26 06 13 fb fd 05 23 16 25 e7 04
       -0.01964039 0.01964039 -0.03928078 0.6284925 0.707054 0.7463348 0.11784234 0.3731674 -0.098201945 -0.05892117 0.098201945 0.68741363 0.43208858 0.7266944 -0.49100974 0.07856156
0000e0 fe df e1 ef 05 0e 14 11 0b 0a 08 06 1c 00 fd f5
       -0.03928078 -0.64813286 -0.6088521 -0.33388662 0.098201945 0.27496547 0.39280778 0.33388662 0.21604429 0.19640389 0.15712312 0.11784234 0.54993093 0.0 -0.05892117 -0.21604429
0000f0 e7 fa 06 0d 13 10 16 0a 07 10 24 07 03 e3 f4 16
       -0.49100974 -0.11784234 0.11784234 0.25532508 0.3731674 0.31424624 0.43208858 0.19640389 0.13748273 0.31424624 0.707054 0.13748273 0.05892117 -0.5695713 -0.23568468 0.43208858

sequential/quant_dense_1/MatMul;sequential/quant_dense_1/LastValueQuant/FakeQuantWithMinMaxVars i1 [10, 10] scale=0.016112749 zero_point=0
000000 d6 29 0f e5 c6 47 eb ce 20 eb da bd dd 90 5f 4e
       -0.67673546 0.6606227 0.24169123 -0.4350442 -0.93453944 1.1440052 -0.33836773 -0.8056374 0.51560795 -0.33836773 -0.6122844 -1.0795542 -0.5639462 -1.8046279 1.530711 1.2567943
000010 0f e4 40 31 13 bb 35 03 c2 2f e2 ba e4 30 bb eb
       0.24169123 -0.45115697 1.0312159 0.7895247 0.3061422 -1.1117797 0.85397565 0.048338246 -0.9989904 0.7572992 -0.48338246 -1.1278924 -0.45115697 0.7734119 -1.1117797 -0.33836773
000020 23 da 9c d7 f3 4e f4 1d 3b cf dc 0c 0b 18 0e 1f
       0.5639462 -0.6122844 -1.6112748 -0.6606227 -0.20946573 1.2567943 -0.19335298 0.46726972 0.9506522 -0.7895247 -0.58005893 0.19335298 0.17724024 0.38670596 0.22557849 0.4994952
000030 ed 9d 06 0b 1d 09 fe 81 8b 1f 27 ef 43 09 2a 90
       -0.3061422 -1.5951622 0.09667649 0.17724024 0.46726972 0.14501473 -0.032225497 -2.046319 -1.8851916 0.4994952 0.62839717 -0.27391672 1.0795542 0.14501473 0.67673546 -1.8046279
000040 1a f6 ff b7 15 bf b4 fb a6 13 b5 dc 47 d3 52 0d
       0.41893145 -0.16112748 -0.016112749 -1.1762307 0.33836773 -1.0473287 -1.2245688 -0.08056374 -1.4501474 0.3061422 -1.2084562 -0.58005893 1.1440052 -0.7250737 1.3212454 0.20946573
000050 05 51 0c f3 16 e4 d2 01 92 fd ae 10 20 0c 1f 02
       0.08056374 1.3051326 0.19335298 -0.20946573 0.35448048 -0.45115697 -0.74118644 0.016112749 -1.7724023 -0.048338246 -1.3212454 0.25780398 0.51560795 0.19335298 0.4994952 0.032225497
000060 2d e2 a9 83
       0.7250737 -0.48338246 -1.4018091 -2.0140936
