awesome-giza-actions/trend_token_prediction/pytorch-token-trend_action_model.onnx (onnx, 40192 bytes, 5 tensors)

fc1.weight f4 [64, 120]
000000 5b 53 bd bd cb 5d eb 3d 7c 2d aa 3d 2a 3e 62 3c
       -0.092444144 0.11492499 0.08309457 0.013808766
000010 3b 8b e1 3d 32 2e cb bd 04 74 53 be d4 d0 27 3e
       0.11012884 -0.099209204 -0.20649725 0.16388255
000020 7d 2f af 3d 22 93 11 bc ab 63 99 3c bb 0d 16 3d
       0.085539795 -0.008885177 0.018724283 0.03663419
000030 9d b1 b4 3c e0 0b 90 3e 2b fc f3 3d 49 53 d5 bc
       0.022057349 0.2813406 0.119133316 -0.02604069
000040 fd fc 64 bc 5e 54 56 3c 8e 24 61 be 61 7d ce bd
       -0.013976333 0.013081638 -0.21986601 -0.10082508
000050 e0 49 86 bd a7 ca be be d6 f7 b1 bd 88 4f 88 ba
       -0.06557059 -0.37263986 -0.08689849 -0.0010399679
000060 3f 2a 75 bd 56 d9 b8 3d ce 2d b1 3d dc 09 79 bc
       -0.059854742 0.090258285 0.08651315 -0.015200105
000070 85 37 5f 3c d5 08 8c 3e 9c e1 33 bb 06 0e 26 3c
       0.013624077 0.27350488 -0.0027447706 0.010135179
000080 33 ce f1 3d 4f a2 94 be 1f d0 10 3e e8 d8 33 3d
       0.118069075 -0.29030082 0.14141892 0.04390803
000090 7d 1d 53 be fb f7 18 3d 4c 66 83 be 2a d3 e6 be
       -0.20616718 0.037345868 -0.25663984 -0.4508298
0000a0 09 0e 10 3e f7 b5 07 3e a9 54 a6 3d 46 cd 52 be
       0.14067854 0.13253008 0.081216164 -0.20586118
0000b0 59 a6 aa be 35 63 0b bd c6 84 1a be 18 f9 00 3e
       -0.33330038 -0.034030158 -0.15089712 0.12595022
0000c0 cc 86 66 be b7 f3 11 3d 1f c4 b7 3d 8c 31 cb bd
       -0.22512358 0.035632815 0.08972954 -0.0992156
0000d0 27 9c 1b be 15 77 77 bd ea b6 9a bb 89 1b 4a 3d
       -0.15196286 -0.0604163 -0.004721512 0.049342666
0000e0 4b 1a 37 be 9f 0c d7 bd 75 10 81 be 09 f3 f3 3b
       -0.17881124 -0.10500454 -0.25207868 0.0074447435
0000f0 cb 95 76 3c 05 b9 31 bd 7f ee bd be 11 88 d1 bd
       0.015050362 -0.04338934 -0.3709602 -0.10231031
000100 e4 d8 5e bd b0 a4 6e 3e 4c d4 89 3e 5c 5e 9d 3c
       -0.05440606 0.23305011 0.26919782 0.019210033
000110 ea 99 8d be 66 b3 00 be 2e f0 df bd 9b 25 05 3e
       -0.2765649 -0.12568435 -0.109344825 0.13002627
000120 3a de 4b bd 61 19 42 bd 13 fb df 3d 15 43 09 3e
       -0.04977248 -0.047387484 0.109365605 0.13404496
000130 72 60 cc 3d 5f f8 e6 bc 67 28 01 bd 38 06 f7 3d
       0.09979333 -0.028194604 -0.03153267 0.12061733
000140 ed fc 43 bd 1a 70 89 bd ff 17 30 be 4b e6 23 3d
       -0.04784863 -0.06710835 -0.17196654 0.040014546
000150 a8 ce 2a 3e 75 ca 27 bd a1 ba a5 3d 7a aa 38 bd
       0.16680396 -0.040964562 0.08092237 -0.045084454
000160 fb 26 8a bd f5 36 8a bd 8f ee 02 3e db 9c 91 bb
       -0.06745716 -0.067487635 0.12786315 -0.0044437475
000170 02 59 d2 3b 7d 3f a1 be 4b 62 8e 3e 09 b9 7b be
       0.006419302 -0.3149375 0.27809367 -0.24582304
000180 b5 72 a2 3d 40 42 29 be 00 60 e4 3d eb e7 5b be
       0.07932035 -0.16529179 0.11151123 -0.21475188
000190 e4 96 5d 3e 0e 01 a5 3e dd 20 19 3e a7 08 80 bd
       0.21639591 0.32227367 0.14953943 -0.0625165
0001a0 97 3a be bd c0 c9 1f be 81 e0 27 bd b1 25 3d be
       -0.09288519 -0.15604305 -0.040985588 -0.1847141
0001b0 1f f5 33 be b5 61 eb bd ac 41 05 3d b8 8b 25 3e
       -0.17573975 -0.114932455 0.032533333 0.1616658
0001c0 f7 9f 5b be 87 3d e7 3d af ef 7d be eb 25 af 3c
       -0.2144774 0.11291032 -0.24798463 0.021380385
0001d0 68 fb bf bc 26 9a 96 3d bb 00 bf be f5 ee cf 3e
       -0.02343531 0.0735362 -0.37305245 0.40611997
0001e0 ca 1a a0 bd 6b 07 3c be c0 07 00 3e b4 49 1b 3d
       -0.078176096 -0.18362205 0.12502956 0.037912086
0001f0 d0 a3 54 bd 1b 6b 2a 3d 09 16 8b bb 76 ca 56 be
       -0.051914036 0.04160605 -0.00424457 -0.2097567
000200 41 5e 2d 3d ee fb 7d 3e c5 5f 79 bc 1e df 74 3c
       0.042326216 0.24803135 -0.015220587 0.014945773
000210 47 81 b8 be 3c 18 6d be 85 ff 34 3e 48 00 8d 3c
       -0.3603613 -0.23153776 0.17675598 0.017212048
000220 7f 30 c7 bd 5e 3a 61 be 7f 5d 93 3d 3a ca 1e be
       -0.09726047 -0.21994922 0.07195567 -0.15506831
000230 86 84 9f 3e a2 28 b9 3c 6d a7 ad 3d 1b bd fb bd
       0.31155795 0.022602383 0.084791996 -0.122919284
000240 e6 95 77 be 73 b6 70 be ef 41 08 be f9 26 92 3e
       -0.24178275 -0.23507099 -0.13306402 0.2854536
000250 d9 16 52 bd fa 00 0d 3d 1f ce a5 bd f1 3c 07 3e
       -0.05129132 0.03442476 -0.08095955 0.13206841
000260 40 98 0e bd 52 a4 64 3e d5 38 8b 3d 34 05 0c bd
       -0.034813166 0.22328308 0.06797949 -0.03418465
000270 4f c9 d1 bd b3 82 70 3e c5 e0 3d be 74 6e 1e 3e
       -0.10243475 0.23487358 -0.18542774 0.15471822
000280 46 aa 88 3d 5a ba 0e 3e 1f 23 ac 3e 97 d2 55 3d
       0.06673102 0.13938275 0.33620545 0.052202787
000290 90 0b ab 3d 1b d1 a6 3e 31 39 ad ba 9c 47 4e be
       0.08351815 0.3258141 -0.0013215897 -0.20144504
0002a0 ec b9 0d 3d e0 d5 4a be 93 cc 48 3e 56 dc 7c 3c
       0.034601137 -0.1980815 0.19609289 0.015433392
0002b0 3a d7 2d 3e eb 15 c4 3e eb ae 93 3c 23 49 2c 3d
       0.16976634 0.38297972 0.018027743 0.042061936
0002c0 57 10 91 3d 5b 60 28 be c8 ab 05 bd 05 4b 31 bc
       0.07083195 -0.16443007 -0.032634526 -0.010821109
0002d0 cc 00 08 bd 18 a6 96 be db dd 9e 3e 60 5b 81 3d
       -0.033203885 -0.29423594 0.31028637 0.063162565
0002e0 b7 20 f1 bd 02 17 03 be b2 07 11 be 83 7a a7 3d
       -0.11773818 -0.12801746 -0.14163092 0.08177664
0002f0 67 b8 f1 3d 9e 2b 11 3e 66 a7 41 3e 86 b2 18 bd
       0.1180275 0.14176795 0.18911514 -0.03727963
000300 09 8e 86 be f7 fe d3 bd a5 92 61 bd 65 4b b4 be
       -0.2628024 -0.10351365 -0.05507149 -0.3521377
000310 e4 57 b5 3d 97 64 7e 3e 7e dd 60 3d 29 7a 8d bd
       0.088546544 0.2484306 0.05489873 -0.06908066
000320 63 a9 4e be 1a 5e 1e be cb 75 46 3e 3e f4 bb bb
       -0.20181803 -0.15465584 0.19380872 -0.005735903
000330 c1 a5 ad 3e 57 ef 65 bd 18 cf 22 be a1 52 fe 3c
       0.33915523 -0.056136455 -0.15899312 0.03104526
000340 af ae 8e be 39 10 f1 3d 3b 5d 49 bd 3d 35 cc bd
       -0.27867648 0.11770672 -0.049161177 -0.09971092
000350 e1 41 79 3d 09 25 5e 3d 40 0c 74 3e 60 39 5b 3d
       0.060853843 0.05423454 0.23832798 0.053521514
000360 d6 ff 96 be a9 81 74 3e 84 dc 4e 3d 2d 12 3f be
       -0.29492062 0.23877586 0.05050327 -0.18659277
000370 47 d2 04 be 54 69 79 3e 74 77 b0 bc 73 ab 7d bd
       -0.1297084 0.24356586 -0.021541335 -0.061931085
000380 c0 70 2c 3e 16 da ac be ec ff d3 3d cf 6c 6e 3d
       0.16839886 -0.33760136 0.103515476 0.058209237
000390 ab 7f e2 bc b6 ac 56 be 26 98 28 3d 5e 9d f1 3d
       -0.027648767 -0.20964321 0.041160725 0.117975935
0003a0 a1 19 66 3c 0c 6d 02 be bd 00 5c bd 95 e1 13 3d
       0.014044196 -0.1273691 -0.05371164 0.036103804
0003b0 d8 58 eb 3d 03 a9 0e 3e 5f 6e 29 3e b3 44 fb 3d
       0.11491555 0.1393166 0.1654601 0.12268963
0003c0 78 29 e9 bd 50 3e 1e bd 9e 56 ce 3d 42 a3 6c bd
       -0.11384863 -0.038633645 0.10075115 -0.057772882
0003d0 56 ec e0 bd d6 4c c1 bd 4f 2f 9e bd 55 a2 71 3d
       -0.109825775 -0.094384834 -0.07723867 0.058992703
0003e0 fe 81 1f be 43 00 cc bd 0f f6 c3 bc 59 77 5e 3e
       -0.15576932 -0.099609874 -0.02392104 0.21725215
0003f0 34 d4 10 be 20 54 51 bc a1 c2 96 be be 86 84 3c
       -0.14143449 -0.012776405 -0.29445365 0.016177531

fc1.bias f4 [64]
000000 8c 97 0d be e9 51 9d bc 32 03 8d 3d 53 8e 26 3e
       -0.13827342 -0.019204097 0.06885375 0.1626523
000010 24 00 15 bd e6 63 28 3e fb 7d 1e 3c ac ba be bd
       -0.036377087 0.16444358 0.009673591 -0.093129486
000020 d4 01 47 bb f0 c1 7f 3d b6 a3 1b 3d 12 2f 89 3d
       -0.003036608 0.062440813 0.037997924 0.06698431
000030 ca 46 5b 3d b6 2e 97 bc 96 b0 e8 3c 6d 88 ff bb
       0.053534307 -0.01845489 0.028404515 -0.0077982456
000040 4a 88 d3 3c 43 bd d6 bd 03 55 f0 3d 69 ec 35 3d
       0.025821824 -0.104853176 0.11734965 0.04441491
000050 7b 7c 98 bd bf 25 14 3d 33 74 b9 bd 66 ef 0e bd
       -0.07445618 0.03616881 -0.09055366 -0.034896277
000060 f6 aa 80 3d e6 a9 64 bb 5c 9b 0f be e1 df 00 3d
       0.06282608 -0.0034891306 -0.14024109 0.031463508
000070 94 93 84 bd 40 48 94 3c dc df 8a 3c 80 ee 59 3d
       -0.06473461 0.018100858 0.016952448 0.053205967
000080 6a 7e 13 3e 1c 94 b0 bb a9 00 3f 3e 9e f4 8d 3c
       0.14403692 -0.0053887498 0.18652596 0.017328557
000090 2c 92 5a 3c 6f 2a 56 bd 4d aa f9 bc 19 ee 85 bd
       0.013340514 -0.05228656 -0.030476714 -0.06539554
0000a0 72 2e 42 3e d9 60 58 3d 98 46 12 bc 04 2d 78 3d
       0.1896303 0.052826736 -0.008927964 0.060589805
0000b0 b6 28 b1 bc d3 83 32 3d 24 f0 26 3e c2 f1 3a be
       -0.021625858 0.04358275 0.16302544 -0.18256286
0000c0 61 29 43 3d 57 3c aa 3c 8c f5 45 bb 50 c9 08 3e
       0.047646884 0.020780725 -0.0030206172 0.13358045
0000d0 c4 13 4e 3c f1 3f 04 3e 28 d4 bf 3c 13 63 07 3d
       0.012577955 0.12915017 0.023416594 0.03305347
0000e0 f8 ca 09 3e 7c 64 fa 3d 40 ab 52 3d ee 66 02 3d
       0.13456333 0.12226197 0.051432848 0.031836443
0000f0 1c 1b c6 bb 3d 9c 19 3d aa 54 ca 3d 6d 3f 54 3d
       -0.006045712 0.037502516 0.0987943 0.0518183

fc2.weight f4 [32, 64]
000000 ac df c4 3e 08 fd 48 3e 62 bb 05 3e 24 fe ba 3e
       0.38451898 0.19627774 0.13059762 0.3652202
000010 9c cd 03 3e fc 35 d9 bd 5c 65 98 3d 7f 8f 05 bd
       0.12871403 -0.10606 0.07441208 -0.03260755
000020 71 34 d1 3d 43 93 06 3f 6a 50 6b bd 47 ed a7 be
       0.102150805 0.52568454 -0.057449736 -0.32798216
000030 6a 5a f9 3d eb 0a ac be 90 fb 2f 3e bb dc 82 3e
       0.12175448 -0.3360208 0.17185807 0.2555903
000040 e5 ce a9 3e 5a 5c 04 be 38 43 d3 3e 96 6a 68 bd
       0.3316566 -0.12925854 0.4126222 -0.056742273
000050 04 9a a8 bd 43 b1 23 bd eb 83 86 3e 47 23 28 3c
       -0.08232501 -0.03996397 0.2627252 0.010262317
000060 01 41 af 3e cb e4 2e bc 67 49 05 3e fe 7a c2 3e
       0.34229282 -0.010674666 0.13016282 0.3798446
000070 56 5d 1e 3e d7 12 b4 bd a0 5c af 3e 52 64 d0 3d
       0.15465292 -0.08792656 0.34250355 0.101753846
000080 c8 97 53 bd f5 12 f9 3d 97 20 68 be 4f 78 22 be
       -0.05165842 0.12161819 -0.22668682 -0.15866207
000090 fc cd 89 bd f7 56 4d be c5 7f 48 3e 86 63 25 3e
       -0.067287415 -0.20052706 0.1957999 0.16151246
0000a0 5f 21 5f be 07 9b 6a 3e 55 71 03 be 21 f8 26 be
       -0.21790074 0.229107 -0.12836201 -0.16305591
0000b0 27 05 5c be 49 f5 89 bd c8 fd 38 3e e3 ce bb bd
       -0.2148634 -0.067362376 0.1806556 -0.0917032
0000c0 9f bc 7b be 2a fa 1c 3e 28 8a 34 3e 80 8e 09 3e
       -0.24583672 0.15329805 0.17630827 0.13433266
0000d0 2c 45 f5 bc 9f 4e cf be 07 b0 34 bd 22 ae 4d be
       -0.02994021 -0.4048967 -0.044113185 -0.20085958
0000e0 1e 0c d1 3e 3d 90 cb bd c2 d8 50 3d e7 33 a4 bd
       0.40829557 -0.09939621 0.050987966 -0.08017712
0000f0 4d f0 4d be 0c a9 ba bd 50 c5 ac 3e 6f 07 50 be
       -0.20111199 -0.091142744 0.33744287 -0.20315336
000100 5d 3f d8 bd 28 c1 a2 be da 2d 8b 3e 75 cd f8 3d
       -0.105589606 -0.31787992 0.2718342 0.12148563
000110 a8 0b c7 be a9 21 37 3d 9f e7 98 3e d2 85 93 be
       -0.3887608 0.044709835 0.29864213 -0.28813034
000120 97 d0 ab 3d c0 80 c7 be 92 d9 28 be 54 97 7f 3e
       0.08389395 -0.38965416 -0.16489246 0.24960071
000130 b7 cc 04 3e 6b 76 2a bd c0 9a b9 be fa 30 2a be
       0.12968718 -0.04161684 -0.36250877 -0.16620246
000140 ee cd 0b bd 93 48 bb 3b f7 3e 15 be 5b da f0 3d
       -0.034131937 0.0057154386 -0.145748 0.11760398
000150 53 f5 94 bd f0 91 a2 3e a5 a7 81 be 1e 3f 7b be
       -0.072733544 0.31751966 -0.25323215 -0.24535796
000160 91 63 c9 be 2f cf a2 3e ae 9d 28 be e4 ba 36 be
       -0.39333776 0.31798694 -0.164664 -0.1784473
000170 72 f3 12 be 92 ab 96 3e b0 0c 5b 3d 86 64 b2 3e
       -0.1435068 0.29427773 0.053478897 0.34842318
000180 1f ae a5 bd 34 ef 89 3e 95 e3 00 3b 70 f0 ff 3d
       -0.080898516 0.2694031 0.00196669 0.12497032
000190 36 ee 15 3d ea d7 fc 3d 5f bc 3e 3d d3 f2 9e be
       0.03660413 0.1234587 0.046566363 -0.31044635
0001a0 bc e1 a4 3c 6b 77 ae be 75 1a b6 3e 3b b8 a4 bd
       0.02012717 -0.34075484 0.3556706 -0.08042952
0001b0 89 36 94 3e f5 92 91 3e d0 e6 41 3e c7 13 3a 3d
       0.28947857 0.28432432 0.18935704 0.045429017
0001c0 f6 ce 77 3e ad 77 09 3e 24 50 e6 bc 48 3e 96 3e
       0.24200043 0.13424559 -0.028114386 0.29344392
0001d0 8c df 8d 3e da 45 61 3e 2d 30 74 be 86 bc 91 3e
       0.27709615 0.21999303 -0.23846503 0.28464144
0001e0 20 cc 72 be 5e 2a f0 be c2 6b ea 3e a0 d7 92 3c
       -0.2371068 -0.46907324 0.45785338 0.017925084
0001f0 87 9b 3b 3d d7 bf 5f 3e 26 91 e0 bd ba 7c f6 3d
       0.04580262 0.21850525 -0.10965185 0.120355085
000200 b5 0a 5a be 74 61 cc be 0c 24 a1 3e ac c0 e0 3d
       -0.21293147 -0.399181 0.31472814 0.10974249
000210 1c d4 f2 be 62 95 dc 3d a2 e2 18 3e ff da 8c be
       -0.47427452 0.1077068 0.14930204 -0.2751083
000220 b7 dc 5a be 20 11 18 bd a0 e1 4b 3e 36 ed b8 3e
       -0.21373259 -0.037125707 0.19910288 0.36118478
000230 c8 b2 3e 3e 41 c5 5c 3e d4 1e 0a 3e a7 e8 77 be
       0.18622887 0.21559621 0.13488322 -0.24209844
000240 8e 45 a2 be 99 a1 c4 3c b9 a2 13 bd bc 34 c3 bc
       -0.3169369 0.024002837 -0.036043856 -0.023828857
000250 a2 f6 b3 3e e7 71 70 3e 58 94 93 be 82 63 35 be
       0.35149103 0.2348095 -0.28824115 -0.1771374
000260 0c ac 3b bd 1e 6f 01 3e b2 fe 6f be 96 97 1f be
       -0.045818374 0.12640044 -0.23437002 -0.15585169
000270 9a 5f 37 3e 70 b2 76 3e 7a bf 07 3d 45 b7 1f 3e
       0.17907563 0.24091506 0.03314159 0.15597256
000280 cc f1 f4 3d df 47 f0 3d 6c 78 ad be 52 32 0e be
       0.119601816 0.11732458 -0.33880937 -0.13886383
000290 ca d3 50 3d de 49 fe bd 82 9b 8d be cd 44 d1 be
       0.050983228 -0.12416433 -0.27657706 -0.40872803
0002a0 a4 58 b5 bd 65 76 2d bd 3d b6 95 3e bc 7e 6c 3d
       -0.088547975 -0.042349238 0.292406 0.05773805
0002b0 47 93 02 3e 35 98 0d 3d 93 a3 26 3e 87 20 8b 3c
       0.12751494 0.034568984 0.16273336 0.016983284
0002c0 09 27 8c 3e 57 04 7b 3e cc 7a 07 3c 4b 3e 63 3e
       0.2737353 0.24513374 0.008269023 0.22191732
0002d0 b1 bd 0b be 4d 8a 9b 3e 8e 35 95 3d b7 b6 d3 3e
       -0.1364658 0.30378953 0.07285605 0.41350338
0002e0 cd 9f a8 3d 0a 16 c7 be d0 b9 25 3e 72 ad 42 3e
       0.082336046 -0.38884002 0.16184163 0.19011477
0002f0 66 7a bd 3e 08 62 2d 3d 9c 65 a7 be ff 1e 04 be
       0.37007445 0.042329818 -0.3269471 -0.12902449
000300 77 9a 00 3e 37 d9 cd 3c 61 63 0c bf 06 62 b5 3d
       0.12558924 0.02512799 -0.5483914 0.08856587
000310 77 3b c3 3d 73 b6 04 3e 5e a1 db 3d ec da b3 be
       0.095328264 0.12960224 0.10724138 -0.35127962
000320 ee 9b 2b bd 92 da cc 3e 4b 19 41 be db 91 6e be
       -0.041896753 0.40010506 -0.18857305 -0.23297827
000330 10 11 c2 3e df 81 d8 bd 5c ea e2 3e f1 16 82 3e
       0.37903643 -0.10571646 0.44319427 0.25408128
000340 07 14 7a 3e c3 63 04 be a4 89 eb 3e 82 5d 0f be
       0.24421702 -0.12928681 0.4600345 -0.14000514
000350 b1 fe ed 3d 4f b1 de bd 81 a9 0c be 17 59 0d bd
       0.11620844 -0.10873663 -0.13736536 -0.03450879
000360 6f 40 d5 3e f5 64 8a be 9b 09 ee 38 a2 59 78 3e
       0.4165072 -0.2703015 0.000113505135 0.24252942
000370 8f 07 4d 3e e0 cf 2f be 6a 1a a8 3e 7e 0c 8d 3d
       0.20022415 -0.17169142 0.32832652 0.06887148
000380 2b 1a 2d 3e 76 96 18 be 24 04 a1 3e e6 f7 f3 3d
       0.16904514 -0.14901146 0.31448472 0.11912517
000390 e0 d1 84 3e 17 6a 2e 3e 0c fa 06 be 00 9d a1 3c
       0.25941372 0.17032658 -0.13181323 0.019728184
0003a0 d8 ae d0 3d b2 67 8f 3c 58 e8 f9 3c 56 21 de be
       0.10189599 0.0175055 0.030506298 -0.43384808
0003b0 28 fa 89 be 22 b2 96 be 99 3c 87 3e 71 34 3a be
       -0.26948667 -0.2943278 0.2641342 -0.18184067
0003c0 56 ae 66 be 48 a8 6b be 66 ef 4a bd 65 03 2e be
       -0.22527441 -0.23013413 -0.049544714 -0.16993482
0003d0 d9 58 4b bd 7a b9 83 bd fd 55 95 3e a3 9a cc be
       -0.04964528 -0.06431861 0.29167166 -0.39961728
0003e0 e9 a2 cf 3e 8b e7 99 3e a7 fb 22 3d 52 97 3c 3e
       0.40553978 0.30059466 0.039790776 0.18417099
0003f0 16 72 87 be 86 f4 e0 bd 3d c2 93 3e 2e fc 75 be
       -0.26454228 -0.10984139 0.2885913 -0.2402198

fc2.bias f4 [32]
000000 de 4a 06 3b 0f 04 f0 3c 6d 5b 85 3c b0 94 9d 3d
       0.0020491402 0.02929881 0.016278947 0.076943755
000010 60 f6 b5 b8 9d 2e 16 bd 91 48 0d 3d 19 0f 12 3d
       -8.6766435e-05 -0.036665548 0.034493033 0.03565893
000020 93 43 14 3d ac c0 84 bd 84 43 11 3e 53 15 15 3d
       0.036197256 -0.06482062 0.14185911 0.03639729
000030 dd 5d 1c 3d cb 0a 80 bd 53 12 84 bc a9 e3 31 3d
       0.038175453 -0.062520586 -0.016122019 0.043430004
000040 75 14 a4 3c 3d f8 2a bc 28 19 16 3b db 7a e0 3d
       0.020029286 -0.010435161 0.0022903178 0.10960933
000050 11 bb db 3d ed 5a 09 bc fe 38 9a 3c cf 07 b4 3d
       0.107290395 -0.008383495 0.018826004 0.08790552
000060 e1 d7 fe 3c 9f d6 21 3d fa eb 86 3d a9 3e 72 3d
       0.031108798 0.03951132 0.06587978 0.05914179
000070 3d e4 e3 3c 8c 78 50 3d 13 63 08 3d ad d3 40 bb
       0.027818793 0.050896212 0.03329761 -0.0029423044

fc3.weight f4 [1, 32]
000000 33 df ea be 24 ad 32 3f 74 fd 03 3f 58 e4 31 bf
       -0.45873412 0.6979544 0.51558614 -0.6948905
000010 08 9b 07 bf 17 8f 2b 3d 66 e9 bd be e5 b5 0b bf
       -0.52970934 0.041884508 -0.3709213 -0.54574424
000020 89 8a 30 3f 36 a9 3d 3d 2b 07 ca 3e 65 35 bb be
       0.6896139 0.04630395 0.39458594 -0.36564174
000030 3c 97 4e be 48 c6 b8 3e 62 71 de 3e 28 48 e4 3e
       -0.20174879 0.36088777 0.4344588 0.445863
000040 49 83 14 3f 99 19 f6 be 6f 1e 16 bf 67 77 29 3f
       0.58012825 -0.48066404 -0.5864019 0.6619782
000050 ea c4 2d bf 9b 5b 3e be ac 4a fe 3e 93 c4 c8 3e
       -0.6787859 -0.18589632 0.49666345 0.39212474
000060 b4 7f a4 be 9e fd 1c 3f 23 72 02 3f 15 d9 af 3e
       -0.3212868 0.6132449 0.5095541 0.34345308
000070 e6 97 a9 be 6b 26 41 bf ed bf 38 bf 0c e3 48 be
       -0.33123702 -0.75449246 -0.72167856 -0.19617862
