awesome-orion/gaming/tic_tac_toe/model/ttt.onnx (onnx, 2980 bytes, 5 tensors)

sequential_1/dense_3/MatMul/ReadVariableOp:0 f4 [9, 1]
00000000: 7686 6abe 7975 d4be 82a4 0dbf 96bb cf3e
00000010: a13b b43e 7bac e73e 18aa c6be 34fa de3e
00000020: 071b d4be
-0.22902855 -0.41495875 -0.55329144 0.40572804 0.35201743 0.4524878 -0.38801646 0.43550265
-0.4142687

sequential_1/dense_2/MatMul/ReadVariableOp:0 f4 [18, 9]
00000000: a30a 1a3d 713b 123d a130 ffbe af15 7a3e
00000010: 1943 1dbf cbbd 13bf 0080 33bd ebbb 19bf
00000020: 88a3 d7bc 30ae 2ebe 36d8 053f 106c cf3d
00000030: 6264 593d 1e56 5cbe 1cdd 43be d784 3bbe
00000040: c511 91be 5085 b2be 76aa 433e 6c66 d23e
00000050: 9a95 5cbd 9653 59be bf86 b93e 45c9 e73e
00000060: e82a 633e 7eb7 d83e 3ca2 8f3e 5ff2 ebbe
00000070: 6dfc 56be 4d42 3bbe 9fe1 8b3f 1dd0 9b3e
00000080: 3a75 843d a6cc 02bf b086 cabd 7b5d 03bf
00000090: d03e 0d3d ba1e ccbd a75d a5bd 626e be3e
000000a0: 9b16 543e b212 073e e7b5 ef3d f035 683e
000000b0: 00cf 3c3e 53d6 efbd f6eb 7abd 85d4 adbe
000000c0: 002f 71be e9c6 da3e 4d9e 923e 5e70 c7bd
000000d0: 2c55 f33e 0d71 a83d c08c 8c3e a131 1a3f
000000e0: 8205 1c3e a22e 02bf e198 e9be eb54 bbbe
000000f0: fa03 1c3e 0492 3ebe 7a5b e8bd 62d0 1f3c
00000100: a045 1ebd 11b1 b83d 1903 323d 7090 863d
00000110: 0dfd e7bc 0e66 9cbc 70a6 c6bc d1eb 08bd
00000120: aa50 853c 6e53 11bf 5e6e 923d 28bf 1cbf
00000130: 461f 04bf 243a b6be 3cba 0a3f f7eb 24bd
00000140: 6267 363f 4648 413f cf46 bfbe cb55 17bd
00000150: 0990 b0be a581 273e 23b5 b03d ae57 0e3f
00000160: 3e69 e93d 65b6 103f 2c38 febe 0375 b6be
00000170: c4be 93be e8fd 9b3e 9dd9 f93d e4b9 333d
00000180: fe9b debe 857b 633d ee04 58bf 207d 96be
00000190: 4cae debe f8ad a0be c306 953e adb8 403e
000001a0: 9ea1 113e d4ef 96bb c193 013e 1121 3fbf
000001b0: 9b6a 12be d5d7 e03d f58b 14be f980 d3be
000001c0: 145d f23e 5402 dc3e 0ca4 6ebe 3354 d43e
000001d0: 9eb0 f0bd 46f8 333e f8d5 273e d9cb 9f3e
000001e0: fb61 d1be 254c d3be 48f2 bdbe 9af4 683e
000001f0: ad83 ddbe d372 853e fdcf e73d 5e7d c43e
00000200: 85d5 013e a12e 7b3d 17d1 7dbe cf5b 75bc
00000210: 6cc8 98bb 9092 693d 806d bf3d 6bd2 3ebe
00000220: 1832 16bf e01c b3be ecf6 a1bd 6983 fdbe
00000230: 0be1 efbe cc5d 2bbf e29c ccbe 5914 54bf
00000240: 1226 5bbd 724a 483e a1e0 33bf 4cd5 70bb
00000250: 5032 7abf 8c03 47bf 5fba 9abc 2a52 4dbf
00000260: 6cc2 1c3d 1083 343f 2bfd eebd 56fd 273f
00000270: 0e1a bebe 33fc 9dbe ab98 93be eb23 073f
00000280: c79c 7ebe 2975 aabd
0.0376078 0.03570122 -0.49841788 0.24422334 -0.6143051 -0.57711476 -0.043823242 -0.60052365
-0.026323095 -0.17058635 0.52283037 0.10128033 0.053074248 -0.21517226 -0.19127315 -0.18312393
-0.2833387 -0.34867334 0.19107994 0.41093767 -0.05385361 -0.21223292 0.36235616 0.45270744
0.22184336 0.42327493 0.28053463 -0.46083352 -0.2099473 -0.1828701 1.0928229 0.30432215
0.06467672 -0.5109352 -0.09888971 -0.51314515 0.03448373 -0.09966798 -0.080745034 0.3719359
0.20711748 0.13190725 0.11704617 0.22676826 0.18438339 -0.11710801 -0.061260186 -0.33951202
-0.23553085 0.4272988 0.286364 -0.09738229 0.47525918 0.08224688 0.27451134 0.6023198
0.15236476 -0.50852406 -0.4562445 -0.36588225 0.15235892 -0.18610388 -0.11345573 0.009754272
-0.03864062 0.09018148 0.043459985 0.06570518 -0.028318906 -0.019091632 -0.024249285 -0.033428017
0.016273815 -0.5676793 0.07149957 -0.6122918 -0.5161022 -0.35591233 0.5419042 -0.040264096
0.712515 0.75500906 -0.3735871 -0.036947053 -0.3448489 0.16358049 0.08628299 0.5560254
0.113970265 0.5652831 -0.4965223 -0.35636148 -0.2885648 0.30467153 0.121997096 0.04387845
-0.43478388 0.05553772 -0.8438252 -0.29392338 -0.43492353 -0.31382728 0.2910672 0.18820448
0.14221808 -0.0046062265 0.1265402 -0.7465983 -0.1429848 0.10978667 -0.14506514 -0.41309336
0.47336638 0.42970526 -0.23304766 0.4147049 -0.11752437 0.17575178 0.16390216 0.3121021
-0.40895066 -0.4126903 -0.37098908 0.22749558 -0.43264523 0.26064166 0.113189675 0.38376898
0.12679107 0.061323766 -0.24786793 -0.014975502 -0.004662564 0.05702454 0.09347057 -0.18634956
-0.58670187 -0.34982967 -0.07908425 -0.4951432 -0.46851382 -0.6694 -0.39963442 -0.8284355
-0.053503104 0.19559649 -0.7026463 -0.0036748229 -0.9773302 -0.7773979 -0.018887697 -0.802035
0.038271353 0.70512486 -0.11669382 0.65620935 -0.37129253 -0.30856475 -0.28827414 0.5278918
-0.24864493 -0.08323128

sequential_1/dense_2/BiasAdd/ReadVariableOp:0 f4 [9]
00000000: 3628 9bbc 0428 00bf 5711 b13d 1a1c 603c
00000010: b2c7 3b3e 24c9 383e f731 6d3d fff2 593e
00000020: ac27 49bd
-0.018940073 -0.5006106 0.086458854 0.013678575 0.18337896 0.18045479 0.05790898 0.21284102
-0.0491101

sequential_1/dense_1/MatMul/ReadVariableOp:0 f4 [9, 18]
00000000: fb30 773d d5f3 f2be 1f21 5b3f 612b b9bd
00000010: d37a 383e 6cce 66be 468d 72bf 29d5 1cbd
00000020: 0dfc 983f 8b10 dbbf 4416 1abf 459b 93bf
00000030: 7e95 2ebd c702 a83f a43d 17bd d915 7abf
00000040: 4c29 513e 2c03 0ebf c751 6d3f c996 c1bd
00000050: 9a9b 003f 6249 903e 93dc 96bf 0c39 213f
00000060: 6ec4 b2bc 5de3 5ebc d342 fc3e b453 a93e
00000070: 9aa0 adbf 2e18 92bf dc03 5bbf 39d8 813e
00000080: 4c12 a8be c850 983e 2e80 713f 021b d1be
00000090: 178f 7bbe eb86 013f b5d4 30bf 53f2 22bf
000000a0: 565c 7cbd ae8d 3fbe 6592 b7be a83a 32bd
000000b0: a834 823e 5bcd afbf 8cc3 aebf 008b 39bf
000000c0: 5f6b 0b3d 8178 24bf 7e51 d5be 10a4 53bf
000000d0: 6fd0 bdbe 35a4 523f 69c0 da3d ac4d 84bd
000000e0: 0cb1 213f 7366 bc3e 6c0c 903e 3630 573e
000000f0: f87c f03e 3a8b bf3c a543 5f3e 102d 993e
00000100: 711f 2d3f 1eb2 a2be 5e56 4e3b 5277 a73f
00000110: 81ff ba3d d456 e1be 9ef7 01bf 8d24 80bd
00000120: 570a 27be 3b03 823f 3fae b6bc 2a24 7bbf
00000130: 2c85 1a3e a03f c8bc ea70 9b3f 3efc 56bc
00000140: 4e33 84be 6b5c 553e df2e 6b3d a41c 583e
00000150: fbbb 81be 92d2 f2be 8b7b 8fbc 7b46 e7bd
00000160: 8eec b83d 9cd9 28c0 2f46 83be f792 2c3d
00000170: 6c70 6abf 3229 61bf 361a c5be 2887 ccbb
00000180: b084 8e3d 8332 2bbd 2d4f 013f e651 71be
00000190: d4a3 37bd c534 173e b4e5 f43c a383 3bbf
000001a0: 332e a8be b3ac 4cbe 5a1e 8dbd 1ba0 6f3f
000001b0: 6117 c2be 6488 a33e bb9a fd3e 5759 a43e
000001c0: 8747 70bd f363 76bf 8f59 e3bf 1016 3aba
000001d0: 51d3 23c0 b50c 023f 4d69 043e ca72 0ebf
000001e0: ba84 a73d 16b7 b83f fa8a 77bd 3fa7 a33e
000001f0: 1da4 063e 3f3a 18be da76 843f 565a e1bd
00000200: 6fae fbbe 6bad 903e 7a76 633f f210 23bf
00000210: f0a8 09be 33e6 82bd af44 ee3d 8ab9 8a3e
00000220: 3f1a d63d de49 753e efb7 86bf 4463 073e
00000230: 157a 103b 4ca5 8dbf 771f 8a3f e291 a8be
00000240: c3b1 dbbe caa7 9c3e 3062 37bf 4134 abbf
00000250: 338e 03bf 0bc0 3ebf 9ece 92bd 9a87 5bbc
00000260: da34 23bf 240d 49be b825 a0bc 5429 3f3e
00000270: 3aa3 b2bd 5169 3ebf a30e 2e3e 0e25 acbe
00000280: df4a 12be 4df4 823f
0.060349446 -0.47451654 0.85597414 -0.09041477 0.18015604 -0.22539681 -0.94746816 -0.038289223
1.195192 -1.7114424 -0.60190225 -1.153176 -0.042623036 1.3125848 -0.03692402 -0.97689587
0.2042591 -0.5547359 0.9270291 -0.09452588 0.5023743 0.28180987 -1.1786064 0.6297767
-0.02182218 -0.013604012 0.49269733 0.33071673 -1.3564637 -1.1413629 -0.85552764 0.25360277
-0.3282646 0.2974913 0.9433621 -0.40840918 -0.24566303 0.50596493 -0.69074565 -0.6365101
-0.061611496 -0.1870639 -0.35853878 -0.04351297 0.254308 -1.3734545 -1.3653426 -0.7247772
0.034037944 -0.64246374 -0.41663736 -0.82672215 -0.37073085 0.8228181 0.106812306 -0.06460127
0.6316078 0.36796913 0.28134477 0.21014485 0.46970344 0.023381818 0.21803148 0.29917192
0.676261 -0.31776518 0.0031484584 1.3083289 0.09130765 -0.44011557 -0.5076846 -0.062569715
-0.16312538 1.0157236 -0.022299884 -0.98102057 0.15089864 -0.024444401 1.2143834 -0.013121663
-0.25820392 0.20836036 0.057417747 0.21104676 -0.2533873 -0.47426277 -0.017514965 -0.1129274
0.09029494 -2.6382818 -0.25639483 0.042132344 -0.9157779 -0.87953484 -0.3849656 -0.006241698
0.06958902 -0.04179622 0.5051144 -0.23566398 -0.044833973 0.14766224 0.029894687 -0.73247737
-0.32847747 -0.19987755 -0.06890555 0.93603677 -0.37908462 0.31939995 0.49532112 0.3209941
-0.058661964 -0.9624626 -1.7761706 -0.00070986245 -2.5597727 0.5080064 0.12930794 -0.55643904
0.081796125 1.4430873 -0.060435273 0.31963536 0.13148542 -0.14865969 1.0348771 -0.11003558
-0.4915652 0.28257307 0.88852656 -0.6369773 -0.13443351 -0.06391563 0.11634194 0.2709468
0.10454225 0.2395396 -1.0524882 0.1322146 0.0022045423 -1.106607 1.0790852 -0.329238
-0.4290906 0.30596763 -0.716342 -1.3375322 -0.51388854 -0.74511784 -0.07168315 -0.013399029
-0.6375252 -0.19633919 -0.019549236 0.18668109 -0.08722539 -0.7437945 0.16997771 -0.3362202
-0.14286374 1.0230805

sequential_1/dense_1/BiasAdd/ReadVariableOp:0 f4 [18]
00000000: 5095 96bf 5354 09c0 9b79 67bf 05d8 1d3f
00000010: 1425 82bf 3ca8 d33e 16bb 47bd bbff c3bb
00000020: 46d7 9fbf 35d2 1bbf f810 7d3e 9dfd 683f
00000030: f289 593f 8dec 30c0 117e b1be e130 b33f
00000040: b31e 0ac0 79e1 f1bf
-1.1764317 -2.1457717 -0.9041993 0.61657745 -1.0167565 0.4133929 -0.048762403 -0.005981413
-1.2487571 -0.60867625 0.24713504 0.91011983 0.8497611 -2.764438 -0.34666494 1.3999292
-2.1581237 -1.8896934
